experiments/intervention/checkpoints/main.ckpt (torch, 38312 bytes, 36 tensors)

model.flow.0.masked_mlp_shift.0.weight f4 [25, 5]
0	0xbf012a1e	-0.5045489
1	0xb8803c19	-6.11471e-05
2	0x38bc6c3e	8.9847e-05
3	0x39b1d5df	0.00033919417
4	0x38d912ca	0.00010350866
5	0xbe438cee	-0.19096729
6	0xb9bb8b97	-0.00035771422
7	0x383f220c	4.5569657e-05
8	0x3976a1ef	0.00023520713
9	0x39b813df	0.0003511002
10	0xbeeca32e	-0.46218246
11	0xb9a851c7	-0.00032104386
12	0xb9ba076b	-0.0003548221
13	0x39b48fe6	0.00034439488
14	0xb7d4259e	-2.5289886e-05
15	0xbf01206c	-0.50440097
16	0x3892b3e8	6.995333e-05
17	0x391671c2	0.00014347493
18	0x395244dc	0.00020052813
19	0xb98a9a95	-0.00026436584
20	0xbf19ff71	-0.601554
21	0xb9bd3cb0	-0.00036094105
22	0x39be73ee	0.00036325998
23	0xb998d755	-0.00029152134
24	0xb9861142	-0.0002557133
25	0x3ebb5b96	0.36593312
26	0x3ebd9328	0.37026334
27	0xb8c4483a	-9.3594615e-05
28	0x39697ef0	0.000222679
29	0xb96f6c13	-0.00022833077
30	0xbdcfaedb	-0.10140773
31	0xbc1a55e4	-0.009419892
32	0x39be5eb9	0.00036310198
33	0xb9ade844	-0.00033170183
34	0xb9bb56e7	-0.00035732167
35	0x3d9b3b18	0.075796306
36	0x3d77a409	0.06045917
37	0xb996008a	-0.0002861063
38	0xb90cbcd4	-0.00013421784
39	0xb930ea57	-0.00016871966
40	0x3d9e5423	0.077308916
41	0x3d73480a	0.059394874
42	0xb9b7faf3	-0.00035091452
43	0xb99010d7	-0.00027478367
44	0xb8f9574b	-0.00011889505
45	0xbe116422	-0.14198354
46	0xbd02022e	-0.03174036
47	0x39983523	0.0002903129
48	0xb9c41617	-0.0003740049
49	0x39985acd	0.0002905935
50	0xbe805454	-0.25064337
51	0xbec0d3ce	-0.37661594
52	0xbe9dbc0c	-0.3080753
53	0x39b06cf4	0.00033650512
54	0x38503ebc	4.964949e-05
55	0xbe977753	-0.29583225
56	0xbec93429	-0.39297608
57	0xbeb6036d	-0.3554949
58	0x37f6680c	2.9373936e-05
59	0xb9ab6466	-0.00032690464
60	0xbdb81118	-0.089876354
61	0xbd72a8fa	-0.05924318
62	0x3e4db34a	0.20087925
63	0x39b7859b	0.00035004024
64	0xb748705c	-1.194709e-05
65	0xbf05f1e4	-0.5232222
66	0xbef805c4	-0.484419
67	0xbf1d53cd	-0.61455995
68	0xb848bfaa	-4.7862217e-05
69	0xb74f2ac8	-1.2348122e-05
70	0xbf05d89f	-0.5228366
71	0xbef7f3fd	-0.48428336
72	0xbf1d4583	-0.6143419
73	0x39721489	0.00023086568
74	0xb89942df	-7.308064e-05
75	0xbdc4848e	-0.09595595
76	0xbe5dbc52	-0.2165387
77	0xbd9b2082	-0.0757456
78	0x3e50f1c2	0.20404723
79	0x392fbd27	0.00016759765
80	0x3dd3f3f0	0.10349262
81	0x3df4a04c	0.11944637
82	0xbd113810	-0.035453856
83	0xbebaebd0	-0.36508036
84	0x38b2e1d9	8.529769e-05
85	0xbee609c1	-0.44929317
86	0xbe87bda2	-0.26511866
87	0xbe98067b	-0.29692444
88	0xbf19a440	-0.6001625
89	0x3787271c	1.6111466e-05
90	0xbd79d4de	-0.06099402
91	0x3db9687e	0.090531334
92	0x3d0dfdcd	0.03466587
93	0xbe79bc7e	-0.2438831
94	0x39c5469a	0.0003762737
95	0xbe3f361e	-0.18672988
96	0xbe8ec7f4	-0.27886927
97	0xbe614312	-0.21998242
98	0xbe7084b7	-0.23488127
99	0x39ad26db	0.0003302608
100	0x39495c77	0.000192033
101	0x3922696d	0.00015488798
102	0xb78e41eb	-1.6958415e-05
103	0xb99a2408	-0.00029400014
104	0x38b011b0	8.3956285e-05
105	0xb916ab08	-0.00014368829
106	0x373349d6	1.0686423e-05
107	0xb9132eab	-0.00014036398
108	0x38f24439	0.00011552167
109	0x3908bc7e	0.0001304019
110	0xb97b846f	-0.0002398656
111	0x393822ed	0.00017560618
112	0x386a8298	5.5911572e-05
113	0xb8b7f0de	-8.770985e-05
114	0x38d16677	9.984982e-05
115	0xb83a4495	-4.4409728e-05
116	0xb92e47e1	-0.0001662071
117	0x398d9ce8	0.0002701052
118	0x39780cf4	0.00023655948
119	0xb9a28793	-0.00031000059
120	0x39022983	0.0001241323
121	0x394f3a1a	0.00019762703
122	0xb87d9c56	-6.04655e-05
123	0x393e703d	0.00018161624
124	0xb927c882	-0.00016001056

model.flow.0.masked_mlp_shift.0.bias f4 [25]
0	0x3c699b90	0.01425828
1	0x3f2fcd46	0.686726
2	0x3f049a10	0.5179758
3	0x3c697106	0.014248138
4	0x3f012403	0.50445575
5	0xbc9b73ff	-0.01897621
6	0x3ed65e91	0.41869023
7	0x3eec843f	0.46194646
8	0x3eeda72b	0.46416602
9	0xbee0cc35	-0.43905798
10	0x3ecf9e97	0.40550682
11	0x3ec7d04e	0.3902611
12	0x3a289bac	0.00064318883
13	0xbc1fb7f1	-0.009748445
14	0xbc1f6122	-0.009727748
15	0xbe43afab	-0.19109981
16	0xbd9e659e	-0.07734226
17	0x3b022646	0.0019859239
18	0xbdfe5d39	-0.124201246
19	0x3e95ce09	0.29258755
20	0xb984889a	-0.00025278778
21	0x39240ab1	0.00015644242
22	0x39a889be	0.00032146083
23	0x390dee26	0.00013535525
24	0xb9770211	-0.00023556525

model.flow.0.masked_mlp_shift.1.weight f4 [15, 25]
0	0x3f03d383	0.51494616
1	0xbcd817e5	-0.026378581
2	0x3e125fa0	0.1429429
3	0x3f03e071	0.51514345
4	0x3e49e277	0.19715296
5	0x38943e12	7.0687514e-05
6	0xb91721e7	-0.00014413112
7	0x38cce23b	9.769617e-05
8	0xb8a96264	-8.076875e-05
9	0x37d89465	2.5818308e-05
10	0x381e2b66	3.7710553e-05
11	0x38834dcd	6.261058e-05
12	0xb757f0c4	-1.2871056e-05
13	0xb82a5b8d	-4.061642e-05
14	0xb7bcdc8e	-2.251405e-05
15	0x38809c16	6.132589e-05
16	0xb885e4dc	-6.3845626e-05
17	0xb9002861	-0.00012222074
18	0xb89d044e	-7.487145e-05
19	0xb801fff6	-3.099438e-05
20	0x37b947f0	2.2087217e-05
21	0x38a18753	7.702284e-05
22	0x3906c4c3	0.00012852535
23	0x3821c061	3.8564558e-05
24	0xb86ab0ed	-5.5954722e-05
25	0xbeb7fe09	-0.35936
26	0x3f485e0f	0.7826852
27	0x3f0d9c5e	0.5531672
28	0xbeb802f9	-0.35939768
29	0x3f05034f	0.51958174
30	0xb921ccad	-0.00015430404
31	0x3804e60f	3.168551e-05
32	0xb91ee61a	-0.00015153774
33	0xb769da21	-1.3938669e-05
34	0xb90c3615	-0.00013371588
35	0x38db9a7e	0.0001047151
36	0xb8a7605e	-7.98113e-05
37	0xb8f449e3	-0.00011648589
38	0x3894b3ba	7.0906666e-05
39	0x37c2eba5	2.3236333e-05
40	0x388c08db	6.67737e-05
41	0xb90516c4	-0.00012692349
42	0xb8ac756e	-8.223472e-05
43	0xb776938e	-1.4697098e-05
44	0x3919afb4	0.00014656672
45	0x378c26e9	1.670742e-05
46	0xb89ca945	-7.4701886e-05
47	0x38b9d385	8.860886e-05
48	0xb882684d	-6.2183106e-05
49	0x390bb164	0.00013322156
50	0x3f0372d2	0.51347077
51	0xbcd7ebff	-0.026357649
52	0x3e122af7	0.14274202
53	0x3f03ab16	0.5143293
54	0x3e49ae91	0.19695498
55	0x38443f15	4.678879e-05
56	0xb8a3d61f	-7.812329e-05
57	0x38b005bf	8.393404e-05
58	0x385db90e	5.286285e-05
59	0xb8ade4c7	-8.291896e-05
60	0x3915adbd	0.0001427447
61	0x38b15a3b	8.4568244e-05
62	0xb6ff75ba	-7.6132974e-06
63	0x38e426f3	0.00010879142
64	0xb92ce38c	-0.00016487966
65	0xb665b4ac	-3.4228824e-06
66	0xb907cec6	-0.00012951632
67	0xb8acedcc	-8.245892e-05
68	0x38c3f738	9.344373e-05
69	0x38ea05e5	0.000111590874
70	0x35f6b745	1.8381767e-06
71	0x38f09b60	0.00011473033
72	0x391de6da	0.00015058686
73	0xb8d7b512	-0.00010285726
74	0xb8a8b83a	-8.045179e-05
75	0xbe9e0b05	-0.30867782
76	0x3ec07644	0.3759023
77	0x3e7af27e	0.24506566
78	0xbe9e43bc	-0.30911052
79	0x3e94a926	0.290353
80	0xbdcc3cfe	-0.09972571
81	0x3eb5a834	0.3547989
82	0x3ef78976	0.48347062
83	0x3ef78c95	0.48349443
84	0xbf155a89	-0.5834127
85	0x38fef5b3	0.00012157429
86	0x37bc9397	2.2480073e-05
87	0x388352bd	6.261978e-05
88	0x38def6f0	0.000106317806
89	0x37554561	1.2711943e-05
90	0xb8d57683	-0.00010178706
91	0xb8cabd1a	-9.6673335e-05
92	0xb888bb08	-6.519823e-05
93	0xb733258a	-1.0677972e-05
94	0x38ec399f	0.0001126409
95	0x3924c540	0.0001571374
96	0x387fb3f8	6.0964347e-05
97	0x391d063e	0.00014975012
98	0x36974f63	4.5093925e-06
99	0x388719f5	6.4421365e-05
100	0x3dd2f0cc	0.102998346
101	0xbf3f4230	-0.7471037
102	0xbea4f772	-0.32220036
103	0x3dd3409c	0.10315058
104	0xbecc3d07	-0.3989031
105	0x3f01152b	0.50422925
106	0xbf2d36f4	-0.67661977
107	0xbd696932	-0.056985088
108	0xbd60f916	-0.054925047
109	0x3bbf5259	0.005838674
110	0xb9251e61	-0.00015746943
111	0x38e03e7d	0.00010692792
112	0xb887255c	-6.44426e-05
113	0x3883d51b	6.286261e-05
114	0xb891b4dc	-6.9478265e-05
115	0x388d9b47	6.7523266e-05
116	0x370b23f2	8.293415e-06
117	0xb7b1eeee	-2.1211305e-05
118	0x389e5bd6	7.551133e-05
119	0xb8b16f28	-8.460722e-05
120	0x3800e724	3.0732845e-05
121	0x390fd878	0.00013718184
122	0xb77e3987	-1.5152974e-05
123	0x38bd2294	9.018663e-05
124	0x391f7fac	0.00015210983
125	0x3e983e75	0.2973515
126	0xbe3305e1	-0.17482711
127	0x3c2b20ba	0.010444814
128	0x3e982da5	0.29722324
129	0x3d1af369	0.03782979
130	0xbc2c3d3b	-0.010512645
131	0xbe23bcc5	-0.15989979
132	0xbf1556be	-0.58335483
133	0xbf15ca98	-0.5851226
134	0x3fd66bb8	1.6751623
135	0x37f25638	2.8888797e-05
136	0x391c4b94	0.00014905474
137	0x38d7f44e	0.00010297504
138	0xb9246388	-0.00015677337
139	0xb8cc1e8e	-9.733169e-05
140	0x372144da	9.612379e-06
141	0xb89f064b	-7.582883e-05
142	0xb88bb17e	-6.661097e-05
143	0x3905c6e4	0.00012757961
144	0xb9035f43	-0.00012528621
145	0x38c1ced3	9.241481e-05
146	0xb9192daf	-0.00014608236
147	0x39018bf9	0.00012354543
148	0x36764d0e	3.6701708e-06
149	0x391ec614	0.00015141844
150	0x3e09560b	0.13411729
151	0xbea3a0c9	-0.31958607
152	0xbe662dde	-0.22478434
153	0x3e097b8f	0.1342604
154	0xbe6a2ca6	-0.22868595
155	0x3da8d611	0.08243955
156	0xbe9c3198	-0.30506587
157	0xbea4409e	-0.3208055
158	0xbea4eec2	-0.32213408
159	0x3f00361b	0.5008256
160	0xbeac0491	-0.33597234
161	0xbea9039d	-0.3301057
162	0x3f1539d7	0.5829138
163	0x3d99782b	0.07493623
164	0x3d99cf69	0.075102635
165	0x38cbbe48	9.715237e-05
166	0xb89c3399	-7.4482705e-05
167	0x392a27c4	0.00016227277
168	0x3917753a	0.00014444152
169	0xb915a355	-0.00014270593
170	0xb89446cb	-7.070376e-05
171	0x38e99446	0.00011137924
172	0x38e7c2cb	0.000110512214
173	0xb8e3d5e1	-0.000108640415
174	0x38390a29	4.41169e-05
175	0xbebaa2bb	-0.36452278
176	0x3d925cb7	0.0714659
177	0x3cc485e8	0.023989633
178	0xbebae6cb	-0.36504206
179	0x3e02c47d	0.12770267
180	0xbdcb2b9b	-0.099204265
181	0x3d646ef5	0.05576988
182	0x3d4b6e69	0.049665842
183	0x3d4eec5d	0.050518382
184	0xbd9e830c	-0.07739839
185	0x3eef9839	0.46795824
186	0x3ef138e6	0.47113723
187	0xbe513c75	-0.20433219
188	0xbf101a57	-0.5629019
189	0xbf104963	-0.5636198
190	0xb8ddbcfb	-0.000105733016
191	0xb8f228bd	-0.00011547047
192	0x392d4e38	0.00016527704
193	0x3864dd9f	5.4565837e-05
194	0x3590df54	1.0793833e-06
195	0xb855c740	-5.0968723e-05
196	0xb8acd1df	-8.240691e-05
197	0xb87fbeb6	-6.097435e-05
198	0xb8630280	-5.4123346e-05
199	0x38474ce3	4.7516904e-05
200	0x3d6cc8f9	0.05780885
201	0xbecdd981	-0.40205005
202	0xbe7fb822	-0.24972585
203	0x3d6da843	0.058021795
204	0xbe84ef1f	-0.25963685
205	0x3e39a9f1	0.18131234
206	0xbeb49fa7	-0.35278055
207	0xbdb1bd76	-0.08678715
208	0xbdb34154	-0.08752695
209	0x3e2270c0	0.15863323
210	0xbeb4b918	-0.35297465
211	0xbeb18cd2	-0.3467775
212	0x3ee4dbb2	0.44698864
213	0x3cecb01c	0.02889257
214	0x3cf13cbf	0.029447911
215	0xb56299e2	-8.441549e-07
216	0x37f7308c	2.9467301e-05
217	0xb85dc89c	-5.2877338e-05
218	0xb9010085	-0.00012302592
219	0xb8b3161d	-8.539504e-05
220	0x3900d309	0.00012285648
221	0xb90ff1e2	-0.00013727651
222	0xb8caea3b	-9.6757394e-05
223	0x390d06e3	0.00013449373
224	0xb8e7a50c	-0.00011045681
225	0x3db65f40	0.08904886
226	0xbe2df854	-0.16989261
227	0xbe15132a	-0.14558092
228	0x3db78cd2	0.08962406
229	0xbe0acc2c	-0.13554448
230	0x3cac594d	0.021038676
231	0xbe265471	-0.1624315
232	0xbe221e82	-0.1583195
233	0xbe227b2b	-0.15867297
234	0x3f041e3b	0.5160863
235	0xbe64aa93	-0.22330694
236	0xbe60698a	-0.2191526
237	0x3f5794b7	0.84211296
238	0xbccbe6f7	-0.024890406
239	0xbccc82fb	-0.0249648
240	0xbf64ccf0	-0.8937521
241	0x3f267747	0.6502575
242	0x3df686cb	0.120374285
243	0x3f59fd7c	0.8515241
244	0xbe116f7f	-0.14202689
245	0xb88a55b7	-6.5963184e-05
246	0x392f1d53	0.00016700225
247	0xb92cfa46	-0.00016496432
248	0xb8e3ab5f	-0.00010856124
249	0xb8e37fa3	-0.00010847978
250	0xbed61918	-0.4181602
251	0x3c378503	0.011201146
252	0x3d3bacef	0.04581922
253	0xbed6a2a6	-0.41920966
254	0x3dc04674	0.09388438
255	0x3c87541d	0.0165196

model.flow.0.masked_mlp_shift.1.bias f4 [15]
0	0xbe14ffd2	-0.14550713
1	0x3f1ee919	0.6207443
2	0xbe14cecf	-0.14532016
3	0x3eee1567	0.46500704
4	0xbea8ad81	-0.32944873
5	0xbed15656	-0.40886182
6	0xbeb9272c	-0.36162698
7	0x3dab42bc	0.08362338
8	0xbe77e57e	-0.24208638
9	0xbe42a265	-0.19007261
10	0x3cd96610	0.026537925
11	0xbe3af9ec	-0.182594
12	0xb870b67a	-5.7390404e-05
13	0xb89ee717	-7.577071e-05
14	0x38dfdfb2	0.00010675135

model.flow.0.masked_mlp_shift.2.weight f4 [5, 15]
0	0xb7bece95	-2.2745962e-05
1	0x36355200	2.7018832e-06
2	0xb8a8447c	-8.0236205e-05
3	0x3750f4e1	1.2454781e-05
4	0xb8151334	-3.5542253e-05
5	0x38994b49	7.3096315e-05
6	0xb8cbe29e	-9.722005e-05
7	0xb90af393	-0.00013251444
8	0x388df620	6.769248e-05
9	0xb819a1f6	-3.662888e-05
10	0x39235572	0.00015576722
11	0x385a82ef	5.209719e-05
12	0x39126953	0.00013962881
13	0xb886e641	-6.432506e-05
14	0x38129e98	3.4956814e-05
15	0x3ed79711	0.42107442
16	0xbf374d2f	-0.7160215
17	0x3ed6a244	0.41920674
18	0x36c9826b	6.0054494e-06
19	0xb8d7af54	-0.00010284656
20	0x3952406b	0.00020051158
21	0xb900f59d	-0.0001229853
22	0xb94324d0	-0.00018610363
23	0xb821b817	-3.855684e-05
24	0xb9117a23	-0.00013873777
25	0xb8ba3df3	-8.88071e-05
26	0x391c2be5	0.00014893671
27	0xb94151f6	-0.00018436447
28	0x393810da	0.00017553885
29	0x3958affd	0.00020664926
30	0x3ea650ff	0.3248367
31	0xbeb5c1f0	-0.35499525
32	0x3ea59160	0.32337475
33	0xbed2ad68	-0.41147923
34	0x3f6a7ee5	0.91599876
35	0x3ec3e37d	0.38259497
36	0xb8fe9e2b	-0.00012141125
37	0xb90099c4	-0.00012264313
38	0x388808d3	6.486629e-05
39	0xb949a6ba	-0.00019230964
40	0xb92cc6b4	-0.00016477221
41	0x38c8febb	9.5841904e-05
42	0xb765f84b	-1.3707274e-05
43	0xb93c223c	-0.0001794183
44	0xb9263927	-0.00015852285
45	0x3dc8ea5c	0.098103255
46	0xbe9b6b87	-0.30355474
47	0x3dc75e67	0.09734803
48	0xbea540b8	-0.3227594
49	0x3ea4db63	0.3219863
50	0x3e2f3837	0.17111288
51	0x3ea9287b	0.33038697
52	0xbf6c6666	-0.9234375
53	0x3e9e5870	0.30926847
54	0x392fea02	0.00016776475
55	0xb9480477	-0.0001907515
56	0xb8bfdf45	-9.149177e-05
57	0xb8cb0249	-9.68022e-05
58	0xb9005842	-0.0001223991
59	0xb92d9223	-0.00016553006
60	0x3d34ec0d	0.044170428
61	0xbe95bdcd	-0.2924637
62	0x3d33ab8e	0.04386478
63	0xbe929917	-0.28632423
64	0x3e8753f5	0.26431242
65	0x3f57fb7f	0.8436813
66	0x3e9d7bfe	0.3075866
67	0xbefad1b2	-0.4898811
68	0x3ea878e1	0.32904723
69	0x3eac6eb3	0.33678207
70	0xbf3dfe36	-0.7421602
71	0x3e9fb618	0.31193614
72	0xb89d5d6f	-7.503747e-05
73	0x38e18c47	0.00010754965
74	0xb95ee7ae	-0.00021257877

model.flow.0.masked_mlp_shift.2.bias f4 [5]
0	0x3a94553e	0.0011316908
1	0xbeecf59e	-0.4628114
2	0xbeb13be9	-0.3461602
3	0xbe9b97a3	-0.30389127
4	0xbe84f1b4	-0.25965655

model.flow.0.masked_mlp_scale.0.weight f4 [25, 5]
0	0x3f942367	1.1573304
1	0x399c1cc6	0.00029776077
2	0xb98bcb57	-0.00026663646
3	0x398108b8	0.00024611293
4	0x38c2e9ab	9.294165e-05
5	0x3ecccba6	0.3999912
6	0xb8be62fc	-9.078343e-05
7	0x39487dff	0.00019120424
8	0x381928da	3.651609e-05
9	0x38d5de23	0.00010198008
10	0xbf021e0a	-0.50827086
11	0x39418f58	0.00018459314
12	0xb9aee286	-0.0003335664
13	0x392325fc	0.00015559042
14	0xb9a877a7	-0.00032132605
15	0xbe872bd1	-0.26400617
16	0xb908a24e	-0.00013030434
17	0x39a27f23	0.00030993772
18	0x3980b8fb	0.00024551884
19	0xb9a750d1	-0.00031912935
20	0x3e8f8940	0.280344
21	0x3854b6a5	5.071484e-05
22	0x39464e78	0.00018911983
23	0x389b2c3a	7.399214e-05
24	0x39969f1d	0.00028728778
25	0xbcca7941	-0.024716021
26	0x3e9bb82b	0.30413947
27	0x39accc32	0.00032958534
28	0x3734c988	1.0775759e-05
29	0x38b1b550	8.47379e-05
30	0x3e22422e	0.15845558
31	0x3e052a71	0.13004471
32	0x369acd2d	4.6134433e-06
33	0x3955b5c5	0.00020380977
34	0xb9a8b94e	-0.0003218152
35	0x3daf4e2c	0.08559832
36	0xbdb599c8	-0.08867222
37	0x39800e5a	0.00024424755
38	0xb97cbaae	-0.00024102136
39	0xb8c4f982	-9.392483e-05
40	0x3d61a71d	0.055091012
41	0xbed0eddd	-0.40806475
42	0x39992c80	0.0002921559
43	0xb9b82be8	-0.00035127928
44	0xb9633a69	-0.00021670166
45	0xbdab524a	-0.08365305
46	0xbf15056e	-0.5821141
47	0xb9ad4f88	-0.00033056387
48	0xb8f63686	-0.0001174035
49	0xb8f6e71c	-0.000117732416
50	0x3e147a9e	0.144999
51	0x3df1e79e	0.118117556
52	0x3dfca5d5	0.123363174
53	0xb6f341b2	-7.2496123e-06
54	0x39306afe	0.00016824526
55	0x3baddab1	0.005305611
56	0x3dd1201f	0.10211205
57	0x3e9ff548	0.31241822
58	0xb7cc0c18	-2.4324327e-05
59	0xb9853b02	-0.000254117
60	0xbd428719	-0.04749212
61	0xbdd40019	-0.10351581
62	0xbee331c6	-0.44373912
63	0x3772a9e5	1.4463881e-05
64	0xb93866bb	-0.00017585878
65	0xbd312560	-0.043248534
66	0x3bca760d	0.0061786235
67	0x3e88fc8d	0.2675518
68	0xb70aca1e	-8.2725e-06
69	0xb9ac7fff	-0.0003290176
70	0x3dfa676e	0.12226759
71	0x3bb10d45	0.005403193
72	0xbea27d17	-0.3173606
73	0xb8d13dc6	-9.977403e-05
74	0xb98232aa	-0.0002483328
75	0xbd1fd6d9	-0.039023254
76	0x3c3666e7	0.011132932
77	0xbd190990	-0.037362635
78	0x3e6ec900	0.23318863
79	0xb991de5b	-0.00027822223
80	0x3e309443	0.17244057
81	0x3de585ef	0.112071864
82	0xbde347a7	-0.11097651
83	0xbe197390	-0.1498549
84	0x394bcc24	0.00019435637
85	0xbda8f95d	-0.08250687
86	0xbe4fd59b	-0.20296328
87	0xbd089715	-0.033347208
88	0xbd794617	-0.06085786
89	0xb9b70821	-0.00034910536
90	0x3c96bb60	0.018399894
91	0x3e164d88	0.14678013
92	0xbbcf6790	-0.0063294843
93	0xbee47a11	-0.4462438
94	0x38370db2	4.3643355e-05
95	0xbd1f2003	-0.038848888
96	0x3c323b0a	0.010878334
97	0xbd19d2a3	-0.037554394
98	0x3e6f79f6	0.23386368
99	0xb9bb2d8f	-0.00035701363
100	0x391ef3fa	0.00015158943
101	0x38f2fece	0.0001158692
102	0x394cda34	0.00019536243
103	0x39c00404	0.00036624086
104	0xb8c05ea4	-9.1729016e-05
105	0x38c01cd7	9.160645e-05
106	0x38cedcf6	9.864003e-05
107	0xb71e8a84	-9.449785e-06
108	0xb60a7e2a	-2.063704e-06
109	0x3986bc7d	0.00025698906
110	0xb9c16771	-0.00036888898
111	0xb99788a5	-0.00028902772
112	0xb92a1115	-0.00016218827
113	0xb950448b	-0.0001986196
114	0xb93e708f	-0.00018161743
115	0xb9850596	-0.000253719
116	0xb9a1bea6	-0.00030850357
117	0xb8794753	-5.9432652e-05
118	0xb8dec3a9	-0.000106222295
119	0x391ef259	0.00015158336
120	0x3804100f	3.1486208e-05
121	0x398bc0d5	0.00026655817
122	0x39575c80	0.00020538457
123	0x3949a445	0.00019230049
124	0xb9b6b012	-0.00034844928

model.flow.0.masked_mlp_scale.0.bias f4 [25]
0	0x3cf188a3	0.029484099
1	0x3ea54065	0.32275692
2	0x3c772b49	0.015086004
3	0x3e4366db	0.19082205
4	0x3eec69f9	0.461746
5	0x3e20a63e	0.15688416
6	0xbe89fffe	-0.2695312
7	0x3ee2d2fc	0.44301593
8	0x3e90fb69	0.2831681
9	0x3e203d82	0.15648463
10	0xbe794523	-0.2434278
11	0x3e212d1b	0.15739863
12	0xbe241c8c	-0.16026515
13	0x3e4e281c	0.20132488
14	0x3dee64ff	0.11640357
15	0x3e32059b	0.17384951
16	0xbd839090	-0.064240575
17	0xbe42d14b	-0.19025151
18	0x3e51c601	0.20485689
19	0x3e3274aa	0.17427316
20	0x391703ec	0.00014401943
21	0x38b13fa5	8.4518724e-05
22	0x39bdee48	0.00036226423
23	0x393f8356	0.00018264106
24	0xb904a94d	-0.0001265157

model.flow.0.masked_mlp_scale.1.weight f4 [15, 25]
0	0xbfcceff5	-1.6010729
1	0xbf5ed837	-0.8704867
2	0xbe7a5b80	-0.24448967
3	0x3c88539d	0.016641432
4	0xbf4a3366	-0.7898468
5	0x3814de3a	3.5492914e-05
6	0xb854bb85	-5.071938e-05
7	0xb9213981	-0.00015375578
8	0xb8b50997	-8.632539e-05
9	0x3888fe5c	6.5323635e-05
10	0xb85bc0dc	-5.2393283e-05
11	0x38ade7f9	8.292491e-05
12	0xb7bd4a64	-2.2565197e-05
13	0xb8e87741	-0.00011084835
14	0xb8f0e4a9	-0.00011486683
15	0xb82b54d4	-4.084858e-05
16	0x38dd9e8d	0.000105676336
17	0x3915cbe0	0.00014285697
18	0xb883b331	-6.279944e-05
19	0x3878e8ec	5.9344733e-05
20	0x380e81f3	3.3976463e-05
21	0xb92aadca	-0.00016277205
22	0x384baf96	4.85625e-05
23	0x381fd80b	3.810976e-05
24	0x38e93946	0.00011120974
25	0xbf9ebd81	-1.2401582
26	0xbde3af7a	-0.11117454
27	0x3ea35d71	0.31907228
28	0x3e84c315	0.25930086
29	0xbe82e7bc	-0.25567424
30	0x36d469d9	6.3304146e-06
31	0xb92cb24f	-0.00016469623
32	0x38e60f09	0.00010970055
33	0xb8def7f1	-0.000106319676
34	0x38c54546	9.406595e-05
35	0x392b6bb1	0.00016347949
36	0xb8f51be5	-0.00011687706
37	0x381b4a1d	3.7023903e-05
38	0xb834d710	-4.3115637e-05
39	0xb88fe7bd	-6.861936e-05
40	0xb915a0c0	-0.00014269631
41	0xb897a045	-7.2300936e-05
42	0x377b079f	1.496254e-05
43	0x37ebea8b	2.81234e-05
44	0x3920cce8	0.00015335123
45	0xb912dfa2	-0.00014006955
46	0x362173d1	2.4058284e-06
47	0xb90b38d5	-0.00013277245
48	0xb9221ecb	-0.00015460995
49	0x38f2dc5d	0.00011580505
50	0xbe7d1828	-0.24716246
51	0x3e08eb87	0.13371097
52	0x3e8d4cf7	0.27597782
53	0x3ec07eb8	0.3759668
54	0x3d999d00	0.075006485
55	0x38cb7db0	9.7032054e-05
56	0xb7a616af	-1.9799305e-05
57	0x3859038b	5.174013e-05
58	0x391e2a19	0.00015083737
59	0xb8e9f824	-0.000111565256
60	0x390621a0	0.00012791762
61	0xb7d3888f	-2.521675e-05
62	0xb8dbd772	-0.000104828636
63	0xb8be1de5	-9.065474e-05
64	0xb8229265	-3.876015e-05
65	0xb5e075da	-1.67236e-06
66	0x37e7716a	2.7590158e-05
67	0xb922802e	-0.00015497275
68	0xb89e3f36	-7.545801e-05
69	0xb90277cf	-0.00012442398
70	0x35af4b57	1.3060443e-06
71	0xb72aa064	-1.01701335e-05
72	0x390fcf3f	0.00013714748
73	0xb92a50f4	-0.00016242621
74	0x38c732be	9.498511e-05
75	0xbc85997a	-0.016308535
76	0xbcfe2048	-0.031021252
77	0x3dccc37d	0.09998224
78	0x3e6cf9a2	0.23142102
79	0x3d8dbe63	0.06921079
80	0xbeb1ccb5	-0.34726492
81	0xbe9eda46	-0.31025904
82	0x3e6bc988	0.23026097
83	0x3f00b7a0	0.5028019
84	0x3e3642be	0.17798898
85	0x390d3c3e	0.0001346925
86	0xb92ef49a	-0.00016685054
87	0xb9022860	-0.00012412807
88	0x37af3a64	2.0888816e-05
89	0x390d7b28	0.00013492687
90	0x37b227fd	2.1237875e-05
91	0xb84269b1	-4.6351637e-05
92	0x39071938	0.00012883998
93	0xb7c0e300	-2.2993889e-05
94	0x37c5589c	2.3525492e-05
95	0x3882e5b0	6.241666e-05
96	0xb899e55a	-7.3383286e-05
97	0xb8f4493e	-0.00011648469
98	0x37f268e8	2.8897499e-05
99	0xb9232356	-0.00015558055
100	0xbd8711ef	-0.065952174
101	0xbd23ad17	-0.039959993
102	0x3e0137a3	0.1261888
103	0x3e833aba	0.25630742
104	0x3d9ec97c	0.07753274
105	0xbe9e2e00	-0.3089447
106	0xbe6bcec4	-0.23028094
107	0x3e67d622	0.22640279
108	0x3efbb058	0.49157977
109	0x3e4d0c02	0.20024112
110	0xb7b023e0	-2.099754e-05
111	0x38eb0688	0.0001120689
112	0xb72374c7	-9.742746e-06
113	0x392b436a	0.00016332945
114	0xb84656e3	-4.72878e-05
115	0x38835e8e	6.264179e-05
116	0x371f1455	9.481872e-06
117	0x391977e0	0.00014635874
118	0x392bccd6	0.00016384138
119	0xb6a0ecd7	-4.7959434e-06
120	0xb652a5a1	-3.1388847e-06
121	0xb89c8418	-7.463264e-05
122	0xb8449c26	-4.6875466e-05
123	0x3867ff01	5.5312183e-05
124	0xb90716d4	-0.00012883107
125	0xbd1a63cf	-0.03769284
126	0x3df9fe15	0.122066654
127	0x3e3a32cc	0.1818344
128	0xbc7a2061	-0.015266509
129	0x3e4d036a	0.20020834
130	0x3eaf45ba	0.34232885
131	0xbee8e687	-0.45488378
132	0xbe882ec2	-0.26598173
133	0xbd384dad	-0.044995952
134	0x3e36ac96	0.17839274
135	0x385abe0d	5.215225e-05
136	0x361d35d2	2.342615e-06
137	0xb8e24204	-0.00010788816
138	0x38f6ddc4	0.00011771501
139	0xb922fdf6	-0.00015544132
140	0x388ba11d	6.658046e-05
141	0x37d7dd1c	2.573296e-05
142	0xb92fec2c	-0.00016777281
143	0x38f06545	0.00011462955
144	0xb887a425	-6.467876e-05
145	0xb92f8a3b	-0.00016740795
146	0xb72282d4	-9.686413e-06
147	0xb927ef5b	-0.00016015528
148	0xb8ecd52a	-0.00011293062
149	0x37e792c3	2.7605687e-05
150	0x3db8f79c	0.09031603
151	0x3e219e0f	0.15782951
152	0xbdcc739d	-0.09982989
153	0xbcc5b835	-0.024135688
154	0x3e1bc255	0.1521085
155	0x3e1771b7	0.14789473
156	0xbf1212ec	-0.5706012
157	0x3e0f76b0	0.1401012
158	0xbc8d58fd	-0.017254347
159	0x3cfee42f	0.031114666
160	0xbdb554e0	-0.08854079
161	0x3e8a0a6f	0.26961085
162	0xbef915b0	-0.4864936
163	0x3e96c35a	0.29445916
164	0xbe5d833b	-0.21632092
165	0x37e08999	2.6766955e-05
166	0xb8bc4bbf	-8.9786474e-05
167	0x37bb0742	2.2295517e-05
168	0xb9281d5a	-0.00016032663
169	0xb78874ca	-1.6266848e-05
170	0xb8efcb37	-0.0001143426
171	0x38242c14	3.9141698e-05
172	0x3921278f	0.00015368893
173	0xb6dcfbfd	-6.585846e-06
174	0x39255f96	0.00015771235
175	0xbc24e6ff	-0.010064839
176	0x3d535ce9	0.051602278
177	0xbe10a177	-0.14124094
178	0xbe1aa700	-0.15102768
179	0x3d8af208	0.06784445
180	0x3dbad976	0.09123509
181	0xbf584991	-0.84487253
182	0x3da15853	0.07878175
183	0xbdfc8e56	-0.12331836
184	0xbe4dab02	-0.20084766
185	0xbef4e6cc	-0.47832334
186	0x3e1a0960	0.15042639
187	0xbeb75653	-0.35808048
188	0x3e2beae2	0.1678882
189	0xbee4de03	-0.44700631
190	0x38c3b71d	9.332432e-05
191	0x3908de29	0.00013052732
192	0xb8977305	-7.221665e-05
193	0x381abdae	3.6893114e-05
194	0xb812aba1	-3.4968954e-05
195	0x38f2fffc	0.0001158714
196	0xb863619f	-5.4211934e-05
197	0x39176b4a	0.0001444045
198	0xb91e9617	-0.00015123967
199	0x390ef3a9	0.00013632946
200	0x3daa5b2c	0.08318171
201	0x3e19f65c	0.15035385
202	0x3bf9b9d2	0.0076210285
203	0x3c72c185	0.014816646
204	0x3e11f600	0.14253998
205	0x3e15ac03	0.14616399
206	0xbf129a98	-0.5726714
207	0x3e0dc532	0.13844755
208	0xbb42f662	-0.0029748906
209	0x3d89e9eb	0.067340694
210	0xbd859ba2	-0.06523825
211	0x3e8d75aa	0.27628833
212	0xbef0bcac	-0.47018945
213	0x3e9a7283	0.3016549
214	0xbe816840	-0.2527485
215	0xb8ab6aff	-8.173845e-05
216	0x37a90277	2.0147518e-05
217	0xb90eda4a	-0.00013623494
218	0xb9051cad	-0.00012694551
219	0xb910934e	-0.00013787785
220	0xb8c17f41	-9.22666e-05
221	0x38b5f4aa	8.676325e-05
222	0x38f9fb11	0.0001192001
223	0xb79f6176	-1.899966e-05
224	0xb8948d10	-7.083465e-05
225	0x3d8b7828	0.06810027
226	0x3dd21820	0.10258508
227	0x3dbef787	0.09324556
228	0x3c3236d1	0.010877327
229	0x3df82047	0.121155314
230	0x3de7bee5	0.11315707
231	0xbead7753	-0.338801
232	0x3e0e76d2	0.13912514
233	0x3d089a8c	0.033350512
234	0xbd7e2e93	-0.062056135
235	0xbef0e66e	-0.47050804
236	0x3d8a12c0	0.067418575
237	0xbd6e9dd4	-0.058255985
238	0x3dcac2ad	0.09900413
239	0xbe150a7a	-0.14554778
240	0x3e64c195	0.2233947
241	0x3f3b895f	0.73256487
242	0xbdc49f4d	-0.09600697
243	0xbeeafa51	-0.458941
244	0x3e670816	0.22561678
245	0x389d797f	7.508974e-05
246	0x38046161	3.1561944e-05
247	0xb86ab316	-5.5956734e-05
248	0x392d8416	0.00016547772
249	0x38fb50af	0.00011983641
250	0xbb559ca0	-0.0032594576
251	0xba1b580f	-0.00059259025
252	0x3daf03ad	0.08545623
253	0x3c80439e	0.015657242
254	0xbeef0143	-0.4668065
255	0xbb6fdb8d	-0.0036599368

model.flow.0.masked_mlp_scale.1.bias f4 [15]
0	0xbeaa39fc	-0.33247364
1	0x3db6714b	0.08908328
2	0x3e85c7d7	0.26129028
3	0x3e22e5de	0.15908
4	0x3e3a14bd	0.18171974
5	0xbe3f6bb9	-0.18693437
6	0x3e1acbf2	0.15116861
7	0x3dc39810	0.09550488
8	0x3e1ec7bf	0.15505885
9	0x3e18da94	0.14927131
10	0xbdd1826d	-0.10229955
11	0x3e0e0933	0.13870697
12	0x38d13cd9	9.9772304e-05
13	0x38da610e	0.00010413128
14	0x3924529a	0.0001567103

model.flow.0.masked_mlp_scale.2.weight f4 [5, 15]
0	0xb91c152c	-0.00014885206
1	0xb8816e9b	-6.171801e-05
2	0x38a4b20a	7.853292e-05
3	0xb8ab192e	-8.1586055e-05
4	0xb928670e	-0.0001606012
5	0xb877e5b5	-5.910332e-05
6	0xb924cee2	-0.00015717329
7	0x39246095	0.00015676238
8	0x3801f96b	3.0988285e-05
9	0xb951f101	-0.00020021574
10	0xb8a06e45	-7.649934e-05
11	0x378df85c	1.6924161e-05
12	0x394844c9	0.00019099111
13	0x37a3cbcc	1.9526015e-05
14	0x37cc2cd9	2.4339579e-05
15	0xbf8f4cfb	-1.1195368
16	0xbf466681	-0.7750016
17	0xbec8ef86	-0.39245242
18	0x38cb779c	9.702073e-05
19	0xb90928e7	-0.00013080575
20	0x3943d653	0.00018676491
21	0xb8b762a9	-8.744497e-05
22	0xb92bfca3	-0.00016401945
23	0xb83221d3	-4.247001e-05
24	0xb8edffd3	-0.000113486916
25	0x3904f333	0.000126791
26	0xb920c102	-0.0001533069
27	0x35acafdf	1.2866184e-06
28	0x3813899d	3.5175693e-05
29	0xb7bb32b9	-2.2315757e-05
30	0xbf3da42e	-0.74078643
31	0xbeb00cdb	-0.34384808
32	0xbdf0493f	-0.117327206
33	0xbeb725ab	-0.35770926
34	0xbea78e7c	-0.32725894
35	0x3fb67902	1.4255679
36	0x3890d076	6.905284e-05
37	0x394aa156	0.00019324324
38	0xb8ce8b34	-9.848774e-05
39	0x395a4dfc	0.00020819152
40	0x35605102	8.3564385e-07
41	0xb92b6523	-0.00016345507
42	0xb58f7cf3	-1.0690695e-06
43	0xb91eba95	-0.00015137561
44	0x393e9b6e	0.00018177714
45	0xbdae8711	-0.085218556
46	0xbe0aa187	-0.1353818
47	0xbe5dc6f8	-0.21657932
48	0xbe57e226	-0.21082363
49	0xbe42ce76	-0.19024071
50	0x3fb618e6	1.4226348
51	0x3e7d634d	0.24744911
52	0x3eaf01b8	0.34181
53	0x3e873378	0.26406455
54	0x392483f8	0.00015689421
55	0xb8ebdca3	-0.0001124677
56	0x38a12685	7.684253e-05
57	0xb8999366	-7.3230636e-05
58	0x3960c015	0.00021433861
59	0x39095cd4	0.0001309992
60	0xbb66dca1	-0.003522672
61	0xbe5dc491	-0.21657015
62	0xbe052619	-0.13002814
63	0xbe27c429	-0.16383423
64	0xbe457639	-0.1928338
65	0x3f081aa0	0.53165627
66	0x3dd0fc0e	0.102043256
67	0x3ed721ad	0.4201788
68	0x3db9a89f	0.09065365
69	0x3e8d5614	0.27604735
70	0x3f03123e	0.5119971
71	0x3e9203b3	0.28518447
72	0xb899a40e	-7.326166e-05
73	0xb8ff9216	-0.00012186558
74	0x38bd0317	9.012798e-05

model.flow.0.masked_mlp_scale.2.bias f4 [5]
0	0x39d41bca	0.00040456495
1	0x3d2f33da	0.04277406
2	0x3e99e605	0.30058303
3	0xbbce18c5	-0.006289574
4	0xbdafc1d9	-0.085818954

exp_avg f4 [25, 5]
0	0x3cb6a7e8	0.02229686
1	0x00000000	0.0
2	0x00000000	0.0
3	0x00000000	0.0
4	0x00000000	0.0
5	0xbca2a5e6	-0.019854497
6	0x00000000	0.0
7	0x00000000	0.0
8	0x00000000	0.0
9	0x00000000	0.0
10	0xbc118595	-0.008881946
11	0x00000000	0.0
12	0x00000000	0.0
13	0x00000000	0.0
14	0x00000000	0.0
15	0x3cb6c7e1	0.022312107
16	0x00000000	0.0
17	0x00000000	0.0
18	0x00000000	0.0
19	0x00000000	0.0
20	0xbb9f2347	-0.0048565003
21	0x00000000	0.0
22	0x00000000	0.0
23	0x00000000	0.0
24	0x00000000	0.0
25	0x3b312c41	0.0027034434
26	0x3b3940fd	0.0028267496
27	0x00000000	0.0
28	0x00000000	0.0
29	0x00000000	0.0
30	0xbbd7bb33	-0.006583595
31	0xbbfed606	-0.0077769784
32	0x00000000	0.0
33	0x00000000	0.0
34	0x00000000	0.0
35	0xbc23da7a	-0.010000819
36	0xbc2e8ba8	-0.010653414
37	0x00000000	0.0
38	0x00000000	0.0
39	0x00000000	0.0
40	0xbc33eef9	-0.0109822685
41	0xbc3b8eb9	-0.011447602
42	0x00000000	0.0
43	0x00000000	0.0
44	0x00000000	0.0
45	0x3c5d64cc	0.013512801
46	0x3c33abea	0.0109662805
47	0x00000000	0.0
48	0x00000000	0.0
49	0x00000000	0.0
50	0xb8a01ebf	-7.6351214e-05
51	0xb9d5f749	-0.00040810768
52	0xba31d425	-0.0006783626
53	0x00000000	0.0
54	0x00000000	0.0
55	0x3a035a9d	0.0005010756
56	0x38172a4b	3.6040594e-05
57	0x39107b4d	0.00013778843
58	0x00000000	0.0
59	0x00000000	0.0
60	0x3c6f54bb	0.014607604
61	0x3c800a92	0.01563004
62	0x3c639b03	0.013891938
63	0x00000000	0.0
64	0x00000000	0.0
65	0xba0be55d	-0.0005336607
66	0xb93fbe9c	-0.00018286187
67	0xb98d5fa8	-0.00026964885
68	0x00000000	0.0
69	0x00000000	0.0
70	0xba0c2265	-0.00053457014
71	0xb9404afb	-0.0001833848
72	0xb98dacdc	-0.00027022406
73	0x00000000	0.0
74	0x00000000	0.0
75	0x39eb2246	0.0004484823
76	0x3a17001d	0.000576021
77	0x3a038ecf	0.00050185336
78	0x398633f2	0.00025597174
79	0x00000000	0.0
80	0xba26a6ed	-0.00063572713
81	0xba2d534c	-0.00066118385
82	0xba26b7e2	-0.0006359798
83	0xba08516f	-0.0005200123
84	0x00000000	0.0
85	0x3a5925a9	0.0008283505
86	0x3a353dd4	0.0006913815
87	0x3a45ba9e	0.0007542762
88	0x3aa11451	0.001228938
89	0x00000000	0.0
90	0xb80ebc04	-3.403054e-05
91	0xb96eaa92	-0.00022760991
92	0xb9749922	-0.000233267
93	0x380d18c3	3.364008e-05
94	0x00000000	0.0
95	0xb95c43c6	-0.00021006083
96	0xb915bcc8	-0.00014280074
97	0xb994da8d	-0.00028391593
98	0xb9bedf98	-0.00036406214
99	0x00000000	0.0
100	0x00000000	0.0
101	0x00000000	0.0
102	0x00000000	0.0
103	0x00000000	0.0
104	0x00000000	0.0
105	0x00000000	0.0
106	0x00000000	0.0
107	0x00000000	0.0
108	0x00000000	0.0
109	0x00000000	0.0
110	0x00000000	0.0
111	0x00000000	0.0
112	0x00000000	0.0
113	0x00000000	0.0
114	0x00000000	0.0
115	0x00000000	0.0
116	0x00000000	0.0
117	0x00000000	0.0
118	0x00000000	0.0
119	0x00000000	0.0
120	0x00000000	0.0
121	0x00000000	0.0
122	0x00000000	0.0
123	0x00000000	0.0
124	0x00000000	0.0

exp_avg_sq f4 [25, 5]
0	0x3c988755	0.018619219
1	0x00000000	0.0
2	0x00000000	0.0
3	0x00000000	0.0
4	0x00000000	0.0
5	0x3d24bcbb	0.04021905
6	0x00000000	0.0
7	0x00000000	0.0
8	0x00000000	0.0
9	0x00000000	0.0
10	0x3bca4848	0.0061731674
11	0x00000000	0.0
12	0x00000000	0.0
13	0x00000000	0.0
14	0x00000000	0.0
15	0x3c98c5c6	0.018648993
16	0x00000000	0.0
17	0x00000000	0.0
18	0x00000000	0.0
19	0x00000000	0.0
20	0x3b9c6633	0.0047729253
21	0x00000000	0.0
22	0x00000000	0.0
23	0x00000000	0.0
24	0x00000000	0.0
25	0x3ae96487	0.0017806449
26	0x3ae01222	0.0017095248
27	0x00000000	0.0
28	0x00000000	0.0
29	0x00000000	0.0
30	0x3bd57c9a	0.006515098
31	0x3bcf84d3	0.0063329726
32	0x00000000	0.0
33	0x00000000	0.0
34	0x00000000	0.0
35	0x3bc354ea	0.0059610503
36	0x3bbdc3d4	0.005791167
37	0x00000000	0.0
38	0x00000000	0.0
39	0x00000000	0.0
40	0x3bc395a6	0.005968767
41	0x3bbe122a	0.005800505
42	0x00000000	0.0
43	0x00000000	0.0
44	0x00000000	0.0
45	0x3bc0da12	0.005885371
46	0x3b954685	0.0045555257
47	0x00000000	0.0
48	0x00000000	0.0
49	0x00000000	0.0
50	0x3a0ac5f4	0.00052937795
51	0x3a10f65e	0.00055298756
52	0x3a307a02	0.0006732048
53	0x00000000	0.0
54	0x00000000	0.0
55	0x39fb50c4	0.00047934626
56	0x3a0142e1	0.0004930925
57	0x3a1b7171	0.0005929685
58	0x00000000	0.0
59	0x00000000	0.0
60	0x3bc1ba33	0.0059120893
61	0x3bbd29b2	0.0057727927
62	0x3bc5f23e	0.0060408404
63	0x00000000	0.0
64	0x00000000	0.0
65	0x39d111e5	0.0003987692
66	0x39d73c14	0.00041052757
67	0x3a05aab8	0.00050989864
68	0x00000000	0.0
69	0x00000000	0.0
70	0x39d1ab28	0.00039991108
71	0x39d7d911	0.00041169723
72	0x3a060b22	0.0005113353
73	0x00000000	0.0
74	0x00000000	0.0
75	0x3849bebe	4.8099777e-05
76	0x38421f25	4.628221e-05
77	0x382d63e1	4.1339434e-05
78	0x3816c95e	3.5950325e-05
79	0x00000000	0.0
80	0x374b15b1	1.2104793e-05
81	0x374e7565	1.230589e-05
82	0x37615a05	1.3432004e-05
83	0x37757123	1.462948e-05
84	0x00000000	0.0
85	0x387cea57	6.0299728e-05
86	0x3879693c	5.9464233e-05
87	0x388c347a	6.685495e-05
88	0x38a687b4	7.9407735e-05
89	0x00000000	0.0
90	0x387618a2	5.867391e-05
91	0x3871a776	5.7614838e-05
92	0x387090bf	5.7355264e-05
93	0x38744f3d	5.824793e-05
94	0x00000000	0.0
95	0x3847e365	4.7657075e-05
96	0x3846696f	4.730507e-05
97	0x38640a1c	5.436885e-05
98	0x388efaa9	6.817777e-05
99	0x00000000	0.0
100	0x00000000	0.0
101	0x00000000	0.0
102	0x00000000	0.0
103	0x00000000	0.0
104	0x00000000	0.0
105	0x00000000	0.0
106	0x00000000	0.0
107	0x00000000	0.0
108	0x00000000	0.0
109	0x00000000	0.0
110	0x00000000	0.0
111	0x00000000	0.0
112	0x00000000	0.0
113	0x00000000	0.0
114	0x00000000	0.0
115	0x00000000	0.0
116	0x00000000	0.0
117	0x00000000	0.0
118	0x00000000	0.0
119	0x00000000	0.0
120	0x00000000	0.0
121	0x00000000	0.0
122	0x00000000	0.0
123	0x00000000	0.0
124	0x00000000	0.0

exp_avg f4 [25]
0	0xbb4d19fb	-0.0031296003
1	0xbd270325	-0.040774483
2	0xbcc8bb71	-0.024503442
3	0xbb4cace2	-0.0031230976
4	0xbce84319	-0.028352307
5	0x3bd88ec3	0.0066088154
6	0xbc8f36c7	-0.017482175
7	0xbca050fa	-0.019569863
8	0xbc9e77af	-0.019344179
9	0xb9174791	-0.00014427143
10	0xbcaa84a5	-0.020815203
11	0xbc9ec3f6	-0.01938055
12	0x3c9d6791	0.019214423
13	0x3c16278f	0.009164705
14	0x3c165a92	0.009176867
15	0xba427611	-0.0007418106
16	0x3a103f85	0.0005502629
17	0x3983055c	0.0002499026
18	0x3a761ce4	0.00093884603
19	0xba91b5c7	-0.0011116796
20	0x00000000	0.0
21	0x00000000	0.0
22	0x00000000	0.0
23	0x00000000	0.0
24	0x00000000	0.0

exp_avg_sq f4 [25]
0	0x3cc6fe1d	0.024291093
1	0x3d0d6d08	0.03452781
2	0x3c1f3e51	0.009719447
3	0x3cc75cb7	0.024336202
4	0x3c20825f	0.009796708
5	0x3a53c85f	0.0008078869
6	0x3b95c017	0.004570018
7	0x3bb0c6d6	0.005394797
8	0x3bb14cec	0.005410781
9	0x3a5223a1	0.00080161734
10	0x3b91ddaa	0.0044514732
11	0x3b8c2ce6	0.0042778132
12	0x3bb79583	0.00560254
13	0x3b435d34	0.0029810192
14	0x3b43e66c	0.002989198
15	0x37abe18e	2.048982e-05
16	0x37be1004	2.2657223e-05
17	0x39f7b34c	0.00047245098
18	0x383243a0	4.2501488e-05
19	0x3a0a1bd5	0.00052684295
20	0x00000000	0.0
21	0x00000000	0.0
22	0x00000000	0.0
23	0x00000000	0.0
24	0x00000000	0.0

exp_avg f4 [15, 25]
0	0xbbe5a17d	-0.0070077763
1	0xbbf74257	-0.00754575
2	0xbc2783c1	-0.010224284
3	0xbbe58f84	-0.007005634
4	0xbc44eff6	-0.012020102
5	0x00000000	0.0
6	0x00000000	0.0
7	0x00000000	0.0
8	0x00000000	0.0
9	0x00000000	0.0
10	0x00000000	0.0
11	0x00000000	0.0
12	0x00000000	0.0
13	0x00000000	0.0
14	0x00000000	0.0
15	0x00000000	0.0
16	0x00000000	0.0
17	0x00000000	0.0
18	0x00000000	0.0
19	0x00000000	0.0
20	0x00000000	0.0
21	0x00000000	0.0
22	0x00000000	0.0
23	0x00000000	0.0
24	0x00000000	0.0
25	0x3c19de76	0.009391418
26	0xbc8401c6	-0.016114127
27	0xbb2f2d82	-0.0026730006
28	0x3c19d2af	0.00938861
29	0x3a1be7e0	0.0005947333
30	0x00000000	0.0
31	0x00000000	0.0
32	0x00000000	0.0
33	0x00000000	0.0
34	0x00000000	0.0
35	0x00000000	0.0
36	0x00000000	0.0
37	0x00000000	0.0
38	0x00000000	0.0
39	0x00000000	0.0
40	0x00000000	0.0
41	0x00000000	0.0
42	0x00000000	0.0
43	0x00000000	0.0
44	0x00000000	0.0
45	0x00000000	0.0
46	0x00000000	0.0
47	0x00000000	0.0
48	0x00000000	0.0
49	0x00000000	0.0
50	0xbbe4ad97	-0.0069787013
51	0xbbf67fa4	-0.00752254
52	0xbc26ea73	-0.010187733
53	0xbbe49bb8	-0.006976571
54	0xbc443685	-0.011975889
55	0x00000000	0.0
56	0x00000000	0.0
57	0x00000000	0.0
58	0x00000000	0.0
59	0x00000000	0.0
60	0x00000000	0.0
61	0x00000000	0.0
62	0x00000000	0.0
63	0x00000000	0.0
64	0x00000000	0.0
65	0x00000000	0.0
66	0x00000000	0.0
67	0x00000000	0.0
68	0x00000000	0.0
69	0x00000000	0.0
70	0x00000000	0.0
71	0x00000000	0.0
72	0x00000000	0.0
73	0x00000000	0.0
74	0x00000000	0.0
75	0x394647f3	0.00018909555
76	0xbc8c95fd	-0.017161364
77	0xbc29bb25	-0.01035956
78	0x39464818	0.00018909608
79	0xbc2e752e	-0.010648055
80	0xbc101e0e	-0.008796228
81	0xbc2c1e2e	-0.010505242
82	0xbc73d237	-0.014881662
83	0xbc74e7cf	-0.014947846
84	0x3ac59e37	0.0015077059
85	0x00000000	0.0
86	0x00000000	0.0
87	0x00000000	0.0
88	0x00000000	0.0
89	0x00000000	0.0
90	0x00000000	0.0
91	0x00000000	0.0
92	0x00000000	0.0
93	0x00000000	0.0
94	0x00000000	0.0
95	0x00000000	0.0
96	0x00000000	0.0
97	0x00000000	0.0
98	0x00000000	0.0
99	0x00000000	0.0
100	0xb98c30a4	-0.0002673912
101	0x3b2cbcfd	0.0026357763
102	0x3a7c0ed3	0.0009615246
103	0xb98c2617	-0.0002673126
104	0x3a866f69	0.0010256591
105	0x3a59693d	0.0008293575
106	0x3ad28887	0.0016062417
107	0x3b11e3fa	0.0022261129
108	0x3b12838c	0.002235624
109	0xb95f6ef9	-0.00021308278
110	0x00000000	0.0
111	0x00000000	0.0
112	0x00000000	0.0
113	0x00000000	0.0
114	0x00000000	0.0
115	0x00000000	0.0
116	0x00000000	0.0
117	0x00000000	0.0
118	0x00000000	0.0
119	0x00000000	0.0
120	0x00000000	0.0
121	0x00000000	0.0
122	0x00000000	0.0
123	0x00000000	0.0
124	0x00000000	0.0
125	0xbb3889f1	-0.0028158391
126	0x3a03edd4	0.00050326926
127	0xbaf03b58	-0.0018328233
128	0xbb387c0e	-0.0028150114
129	0xbb2aaad9	-0.0026041775
130	0x3aee832a	0.0018197049
131	0x39bb66ee	0.00035744108
132	0x3b11d8f8	0.0022254568
133	0x3b128e65	0.0022362706
134	0xba149b4a	-0.0005668892
135	0x00000000	0.0
136	0x00000000	0.0
137	0x00000000	0.0
138	0x00000000	0.0
139	0x00000000	0.0
140	0x00000000	0.0
141	0x00000000	0.0
142	0x00000000	0.0
143	0x00000000	0.0
144	0x00000000	0.0
145	0x00000000	0.0
146	0x00000000	0.0
147	0x00000000	0.0
148	0x00000000	0.0
149	0x00000000	0.0
150	0x396e55a6	0.00022729355
151	0x3ad28840	0.0016062334
152	0x3a9bbf20	0.0011882521
153	0x396e4137	0.00022721743
154	0x3a9d11c9	0.001198345
155	0x39f0b919	0.00045914276
156	0x3a80714a	0.0009799388
157	0x3a947e6f	0.0011329184
158	0x3a95334a	0.0011383083
159	0xb8fa9850	-0.000119492994
160	0x3a945cc2	0.0011319148
161	0x3a960c91	0.0011447837
162	0x37fcef83	3.0152272e-05
163	0x3a354ebd	0.0006916335
164	0x3a353b2f	0.0006913421
165	0x00000000	0.0
166	0x00000000	0.0
167	0x00000000	0.0
168	0x00000000	0.0
169	0x00000000	0.0
170	0x00000000	0.0
171	0x00000000	0.0
172	0x00000000	0.0
173	0x00000000	0.0
174	0x00000000	0.0
175	0xbabe9c66	-0.001454246
176	0xbce69b68	-0.028150275
177	0xbc9c6cd2	-0.019094858
178	0xbabe8863	-0.0014536496
179	0xbc9823e3	-0.0185718
180	0xbc1638fc	-0.00916886
181	0xbc8cdbe7	-0.017194701
182	0xbcb0a038	-0.021560773
183	0xbcb170a8	-0.021660164
184	0x3b09bbe7	0.002101654
185	0xbc702cd7	-0.014659128
186	0xbc68e936	-0.014215758
187	0xba53e233	-0.00080827175
188	0xbb1dd7b4	-0.0024084868
189	0xbb1dc853	-0.0024075701
190	0x00000000	0.0
191	0x00000000	0.0
192	0x00000000	0.0
193	0x00000000	0.0
194	0x00000000	0.0
195	0x00000000	0.0
196	0x00000000	0.0
197	0x00000000	0.0
198	0x00000000	0.0
199	0x00000000	0.0
200	0x39a821aa	0.0003206854
201	0x3aca56b7	0.001543722
202	0x3aa0eb8b	0.0012277229
203	0x39a813df	0.00032058262
204	0x3aa5ad91	0.0012640228
205	0xba7c8236	-0.000963244
206	0x3a73807b	0.00092888594
207	0x3a142fa8	0.0005652853
208	0x3a14ec7f	0.00056809926
209	0xb8709849	-5.7362286e-05
210	0x3aa2e189	0.0012426834
211	0x3aa6fc94	0.0012740069
212	0x3815e397	3.5736328e-05
213	0x3a7972ac	0.00095156836
214	0x3a7956e8	0.0009511546
215	0x00000000	0.0
216	0x00000000	0.0
217	0x00000000	0.0
218	0x00000000	0.0
219	0x00000000	0.0
220	0x00000000	0.0
221	0x00000000	0.0
222	0x00000000	0.0
223	0x00000000	0.0
224	0x00000000	0.0
225	0x3825cee7	3.953176e-05
226	0x3a3f47ee	0.000729679
227	0x39e5a199	0.00043798683
228	0x3825bfda	3.951774e-05
229	0x39d9d5cd	0.0004154876
230	0x39cfc2c4	0.00039627228
231	0x39ea7d6e	0.0004472541
232	0x3a1c889b	0.00059712835
233	0x3a1d4647	0.0005999547
234	0xb89b9725	-7.419129e-05
235	0x39d2acdd	0.00040183114
236	0x39d344cc	0.00040296314
237	0x37977075	1.805297e-05
238	0x397e7041	0.00024265145
239	0x397e58b4	0.00024256372
240	0x38109365	3.4469547e-05
241	0xb8131c56	-3.507392e-05
242	0x39234785	0.00015571534
243	0xb8705fa3	-5.7309528e-05
244	0x39a18a7f	0.000308115
245	0x00000000	0.0
246	0x00000000	0.0
247	0x00000000	0.0
248	0x00000000	0.0
249	0x00000000	0.0
250	0x3a721438	0.000923458
251	0xbc223760	-0.009900898
252	0xbb80e453	-0.0039334684
253	0x3a7202cb	0.00092319836
254	0xbb4a16c0	-0.0030836314
255	0xbc14deda	-0.009086335

exp_avg_sq f4 [15, 25]
0	0x3aa8c1ad	0.0012875103
1	0x3b805145	0.003915938
2	0x3b964d6e	0.004586867
3	0x3aa8a7a1	0.001286734
4	0x3bbd7136	0.005781318
5	0x00000000	0.0
6	0x00000000	0.0
7	0x00000000	0.0
8	0x00000000	0.0
9	0x00000000	0.0
10	0x00000000	0.0
11	0x00000000	0.0
12	0x00000000	0.0
13	0x00000000	0.0
14	0x00000000	0.0
15	0x00000000	0.0
16	0x00000000	0.0
17	0x00000000	0.0
18	0x00000000	0.0
19	0x00000000	0.0
20	0x00000000	0.0
21	0x00000000	0.0
22	0x00000000	0.0
23	0x00000000	0.0
24	0x00000000	0.0
25	0x3b6b2c80	0.0035884678
26	0x3c64e1dc	0.013969865
27	0x3c583ba5	0.013197814
28	0x3b6b0850	0.003586311
29	0x3c84ed2d	0.016226375
30	0x00000000	0.0
31	0x00000000	0.0
32	0x00000000	0.0
33	0x00000000	0.0
34	0x00000000	0.0
35	0x00000000	0.0
36	0x00000000	0.0
37	0x00000000	0.0
38	0x00000000	0.0
39	0x00000000	0.0
40	0x00000000	0.0
41	0x00000000	0.0
42	0x00000000	0.0
43	0x00000000	0.0
44	0x00000000	0.0
45	0x00000000	0.0
46	0x00000000	0.0
47	0x00000000	0.0
48	0x00000000	0.0
49	0x00000000	0.0
50	0x3aa73524	0.0012756926
51	0x3b7e4630	0.003879916
52	0x3b94ec29	0.004544754
53	0x3aa71b66	0.0012749254
54	0x3bbbb44a	0.0057282792
55	0x00000000	0.0
56	0x00000000	0.0
57	0x00000000	0.0
58	0x00000000	0.0
59	0x00000000	0.0
60	0x00000000	0.0
61	0x00000000	0.0
62	0x00000000	0.0
63	0x00000000	0.0
64	0x00000000	0.0
65	0x00000000	0.0
66	0x00000000	0.0
67	0x00000000	0.0
68	0x00000000	0.0
69	0x00000000	0.0
70	0x00000000	0.0
71	0x00000000	0.0
72	0x00000000	0.0
73	0x00000000	0.0
74	0x00000000	0.0
75	0x3ac36779	0.0014908157
76	0x3bcae718	0.0061920993
77	0x3bb7e6d4	0.0056122337
78	0x3ac3495b	0.0014899181
79	0x3be00010	0.006835945
80	0x3b48d9da	0.0030647428
81	0x3b161b9f	0.0022904647
82	0x3b372ec7	0.0027951465
83	0x3b38ec3a	0.0028216974
84	0x37e27bcc	2.6998947e-05
85	0x00000000	0.0
86	0x00000000	0.0
87	0x00000000	0.0
88	0x00000000	0.0
89	0x00000000	0.0
90	0x00000000	0.0
91	0x00000000	0.0
92	0x00000000	0.0
93	0x00000000	0.0
94	0x00000000	0.0
95	0x00000000	0.0
96	0x00000000	0.0
97	0x00000000	0.0
98	0x00000000	0.0
99	0x00000000	0.0
100	0x385149a1	4.9898055e-05
101	0x3963935f	0.00021703307
102	0x392f11c3	0.00016695917
103	0x38512982	4.986814e-05
104	0x39578942	0.0002055513
105	0x3ad39866	0.0016143441
106	0x38acac80	8.23373e-05
107	0x39d59d61	0.00040743782
108	0x39d773da	0.00041094312
109	0x369be368	4.6458335e-06
110	0x00000000	0.0
111	0x00000000	0.0
112	0x00000000	0.0
113	0x00000000	0.0
114	0x00000000	0.0
115	0x00000000	0.0
116	0x00000000	0.0
117	0x00000000	0.0
118	0x00000000	0.0
119	0x00000000	0.0
120	0x00000000	0.0
121	0x00000000	0.0
122	0x00000000	0.0
123	0x00000000	0.0
124	0x00000000	0.0
125	0x39d37fac	0.0004034018
126	0x39d4c1a4	0.00040580065
127	0x3a3b79c9	0.0007151631
128	0x39d35f7c	0.00040316198
129	0x3a852342	0.0010157602
130	0x38bfbf83	9.1432616e-05
131	0x3919511f	0.00014621437
132	0x3894ffa4	7.104807e-05
133	0x38966f60	7.1733026e-05
134	0x3605a807	1.991635e-06
135	0x00000000	0.0
136	0x00000000	0.0
137	0x00000000	0.0
138	0x00000000	0.0
139	0x00000000	0.0
140	0x00000000	0.0
141	0x00000000	0.0
142	0x00000000	0.0
143	0x00000000	0.0
144	0x00000000	0.0
145	0x00000000	0.0
146	0x00000000	0.0
147	0x00000000	0.0
148	0x00000000	0.0
149	0x00000000	0.0
150	0x370ba567	8.323556e-06
151	0x3808da13	3.2628024e-05
152	0x37fde021	3.0264318e-05
153	0x370b8fe3	8.318547e-06
154	0x381b88bb	3.708222e-05
155	0x3791a47f	1.7361946e-05
156	0x374a6059	1.2062571e-05
157	0x377811c6	1.478609e-05
158	0x377a6d0c	1.4926551e-05
159	0x341b87bd	1.4484881e-07
160	0x38610eee	5.3658085e-05
161	0x3880c3c7	6.139982e-05
162	0x33ff779d	1.18961204e-07
163	0x38ab238f	8.160539e-05
164	0x38aafc7d	8.153261e-05
165	0x00000000	0.0
166	0x00000000	0.0
167	0x00000000	0.0
168	0x00000000	0.0
169	0x00000000	0.0
170	0x00000000	0.0
171	0x00000000	0.0
172	0x00000000	0.0
173	0x00000000	0.0
174	0x00000000	0.0
175	0x3983a363	0.00025108
176	0x3c0742ea	0.0082557
177	0x3b7f55b2	0.003896099
178	0x39838e99	0.0002509251
179	0x3b783a00	0.0037876368
180	0x3c0d6c8e	0.0086318385
181	0x3b4af7be	0.003097042
182	0x3bd7005a	0.006561321
183	0x3bd8f6e8	0.0066212304
184	0x388ab7d2	6.614592e-05
185	0x3b685ff4	0.0035457583
186	0x3b74a2ba	0.0037328438
187	0x387443aa	5.823715e-05
188	0x3b2988a7	0.0025868805
189	0x3b296346	0.0025846525
190	0x00000000	0.0
191	0x00000000	0.0
192	0x00000000	0.0
193	0x00000000	0.0
194	0x00000000	0.0
195	0x00000000	0.0
196	0x00000000	0.0
197	0x00000000	0.0
198	0x00000000	0.0
199	0x00000000	0.0
200	0x37133159	8.773372e-06
201	0x380a4989	3.297025e-05
202	0x38003782	3.0569274e-05
203	0x37131ac4	8.768115e-06
204	0x381da250	3.7582882e-05
205	0x38b3d496	8.574982e-05
206	0x374d0c52	1.2221821e-05
207	0x37da9947	2.6059e-05
208	0x37dca277	2.6301697e-05
209	0x349ab877	2.881895e-07
210	0x3864883d	5.4486318e-05
211	0x3882f92a	6.2452935e-05
212	0x340255c0	1.2138389e-07
213	0x38b1a262	8.470264e-05
214	0x38b179a7	8.462677e-05
215	0x00000000	0.0
216	0x00000000	0.0
217	0x00000000	0.0
218	0x00000000	0.0
219	0x00000000	0.0
220	0x00000000	0.0
221	0x00000000	0.0
222	0x00000000	0.0
223	0x00000000	0.0
224	0x00000000	0.0
225	0x36945f7f	4.421861e-06
226	0x3794804d	1.770272e-05
227	0x37862131	1.59895e-05
228	0x369448b9	4.4192097e-06
229	0x37a417aa	1.9561343e-05
230	0x372ca66b	1.0290746e-05
231	0x36dbc527	6.54966e-06
232	0x370c462a	8.360987e-06
233	0x370d9b48	8.440409e-06
234	0x33b32fc2	8.344024e-08
235	0x37eaa028	2.7969552e-05
236	0x3806237d	3.198114e-05
237	0x33998a5f	7.149787e-08
238	0x3832f3e4	4.2665648e-05
239	0x3832caf1	4.262751e-05
240	0x3435ae6d	1.6920394e-07
241	0x349c7b45	2.9146955e-07
242	0x3833be30	4.285405e-05
243	0x340566e4	1.2424022e-07
244	0x37c14fc0	2.304453e-05
245	0x00000000	0.0
246	0x00000000	0.0
247	0x00000000	0.0
248	0x00000000	0.0
249	0x00000000	0.0
250	0x3893cba1	7.047435e-05
251	0x3b6a7656	0.00357761
252	0x3ab76586	0.0013992048
253	0x3893b472	7.043117e-05
254	0x3aa7a03b	0.0012788841
255	0x3ba45e18	0.0050160997

exp_avg f4 [15]
0	0xbbee5c32	-0.007274174
1	0xbcdf8840	-0.027286649
2	0xbbedc35b	-0.007255954
3	0xbce88976	-0.028385859
4	0x3b8bf0ed	0.004270664
5	0x3b370aac	0.0027929945
6	0x3b1cedcf	0.0023945456
7	0xbd32d9e9	-0.043664847
8	0x3ae42208	0.0017405162
9	0x3a9a4793	0.0011770598
10	0xbc925592	-0.017863069
11	0x3a8ee442	0.0010901766
12	0x00000000	0.0
13	0x00000000	0.0
14	0x00000000	0.0

exp_avg_sq f4 [15]
0	0x3bb5081d	0.005524649
1	0x3cde4fa1	0.02713758
2	0x3bb35cd2	0.0054737115
3	0x3c47ab28	0.012186803
4	0x3a6c9b40	0.00090258196
5	0x39f1db96	0.00046130706
6	0x38860eb3	6.392356e-05
7	0x3cb84981	0.022495987
8	0x38a5ee53	7.9122045e-05
9	0x38149e27	3.543324e-05
10	0x3c2e6467	0.010644055
11	0x37fe5d5c	3.0322633e-05
12	0x00000000	0.0
13	0x00000000	0.0
14	0x00000000	0.0

exp_avg f4 [5, 15]
0	0x00000000	0.0
1	0x00000000	0.0
2	0x00000000	0.0
3	0x00000000	0.0
4	0x00000000	0.0
5	0x00000000	0.0
6	0x00000000	0.0
7	0x00000000	0.0
8	0x00000000	0.0
9	0x00000000	0.0
10	0x00000000	0.0
11	0x00000000	0.0
12	0x00000000	0.0
13	0x00000000	0.0
14	0x00000000	0.0
15	0xbca2e5e2	-0.019885007
16	0xbb938bb5	-0.0045027384
17	0xbca29512	-0.019846473
18	0x00000000	0.0
19	0x00000000	0.0
20	0x00000000	0.0
21	0x00000000	0.0
22	0x00000000	0.0
23	0x00000000	0.0
24	0x00000000	0.0
25	0x00000000	0.0
26	0x00000000	0.0
27	0x00000000	0.0
28	0x00000000	0.0
29	0x00000000	0.0
30	0xbbedc05d	-0.0072555975
31	0x3c5a2c68	0.013316251
32	0xbbed4b10	-0.007241614
33	0x3ca4e27f	0.020127533
34	0xbb078218	-0.0020676907
35	0xbae640f1	-0.0017566961
36	0x00000000	0.0
37	0x00000000	0.0
38	0x00000000	0.0
39	0x00000000	0.0
40	0x00000000	0.0
41	0x00000000	0.0
42	0x00000000	0.0
43	0x00000000	0.0
44	0x00000000	0.0
45	0x3c0b360d	0.008496773
46	0x3d8d4a29	0.068989106
47	0x3c0af271	0.008480654
48	0x3d807587	0.062724166
49	0xbbba9259	-0.0056937155
50	0xbb7ddefa	-0.003873764
51	0xbbcfeb6d	-0.0063452036
52	0x3c895195	0.016762534
53	0xbbb6d0f2	-0.0055791074
54	0x00000000	0.0
55	0x00000000	0.0
56	0x00000000	0.0
57	0x00000000	0.0
58	0x00000000	0.0
59	0x00000000	0.0
60	0x3b2159d7	0.00246202
61	0x3d52a284	0.05142452
62	0x3b210ad6	0.002457311
63	0x3d56ce90	0.052443087
64	0xbba60ab1	-0.0050671925
65	0xbbce7178	-0.0063001476
66	0xbb9a87ea	-0.0047159093
67	0x3c2689b8	0.010164671
68	0xbb84b18b	-0.004049485
69	0xbb4d328f	-0.0031310653
70	0x3bfd9cc8	0.007739637
71	0xbb49d0ec	-0.0030794693
72	0x00000000	0.0
73	0x00000000	0.0
74	0x00000000	0.0

exp_avg_sq f4 [5, 15]
0	0x00000000	0.0
1	0x00000000	0.0
2	0x00000000	0.0
3	0x00000000	0.0
4	0x00000000	0.0
5	0x00000000	0.0
6	0x00000000	0.0
7	0x00000000	0.0
8	0x00000000	0.0
9	0x00000000	0.0
10	0x00000000	0.0
11	0x00000000	0.0
12	0x00000000	0.0
13	0x00000000	0.0
14	0x00000000	0.0
15	0x3c096a00	0.008387089
16	0x3dbcf744	0.0922685
17	0x3c08dcd9	0.008353435
18	0x00000000	0.0
19	0x00000000	0.0
20	0x00000000	0.0
21	0x00000000	0.0
22	0x00000000	0.0
23	0x00000000	0.0
24	0x00000000	0.0
25	0x00000000	0.0
26	0x00000000	0.0
27	0x00000000	0.0
28	0x00000000	0.0
29	0x00000000	0.0
30	0x3c02e62f	0.00798945
31	0x3dc85487	0.09781747
32	0x3c025ff5	0.007957448
33	0x3d9dc981	0.077044494
34	0x3a6b81b7	0.00089838676
35	0x39d31769	0.00040262498
36	0x00000000	0.0
37	0x00000000	0.0
38	0x00000000	0.0
39	0x00000000	0.0
40	0x00000000	0.0
41	0x00000000	0.0
42	0x00000000	0.0
43	0x00000000	0.0
44	0x00000000	0.0
45	0x3c0204da	0.007935727
46	0x3da1f010	0.079071164
47	0x3c017f42	0.007903876
48	0x3d7e1bcb	0.062038224
49	0x3a408c14	0.0007345092
50	0x39b54bfa	0.00034579617
51	0x3a3eb21e	0.00072744663
52	0x3b262ec5	0.0025357467
53	0x3a408f90	0.0007345611
54	0x00000000	0.0
55	0x00000000	0.0
56	0x00000000	0.0
57	0x00000000	0.0
58	0x00000000	0.0
59	0x00000000	0.0
60	0x3bf95d50	0.0076100007
61	0x3db22f05	0.087003745
62	0x3bf85ce5	0.0075794333
63	0x3d91356f	0.0709027
64	0x3a593ba2	0.0008286779
65	0x39e6c8eb	0.00044018714
66	0x3a4e5db1	0.00078722375
67	0x3b33f63b	0.0027459997
68	0x3a474a14	0.0007602286
69	0x399bbe11	0.00029705514
70	0x3aa238e8	0.0012376579
71	0x399570ce	0.0002850354
72	0x00000000	0.0
73	0x00000000	0.0
74	0x00000000	0.0

exp_avg f4 [5]
0	0x3c0e856c	0.008698802
1	0x399b7e70	0.00029658107
2	0x3c5ad5a8	0.013356604
3	0x3d23a430	0.039951503
4	0x3d0f38da	0.034966327

exp_avg_sq f4 [5]
0	0x3d1ad681	0.037802223
1	0x3d074abc	0.033030257
2	0x3d0b1c75	0.033962686
3	0x3ce06bde	0.027395185
4	0x3d01b8fc	0.031670555
