experiments/intervention/checkpoints/supplements.ckpt (torch, 214828 bytes, 48 tensors)

model.flow.0.masked_mlp_shift.0.weight f4 [90, 3]
0	0x39bab039	0.0003560798
1	0xb7b8b29d	-2.2017683e-05
2	0x3807b248	3.2352546e-05
3	0x3b9ec0b1	0.004844748
4	0x381c53c6	3.727132e-05
5	0x38f72d5e	0.00011786328
6	0xbea733f7	-0.32656834
7	0x3789a5e8	1.6408929e-05
8	0x38b19d58	8.469325e-05
9	0x3c620f5d	0.013797608
10	0x388b768d	6.650118e-05
11	0xb8f270dc	-0.00011560481
12	0x383ce190	4.5032764e-05
13	0x390208e4	0.00012401078
14	0xb718c7a4	-9.1063885e-06
15	0x3af23911	0.0018480142
16	0x37d34e14	2.5189518e-05
17	0x3858b119	5.1663348e-05
18	0xbb890bb6	-0.0041823043
19	0xb8c7a350	-9.519479e-05
20	0xb8a7610d	-7.981258e-05
21	0xbea70751	-0.3262277
22	0x3909283a	0.00013080324
23	0xb8dc247b	-0.000104972125
24	0xbe96a06a	-0.2941926
25	0x38956751	7.124118e-05
26	0x38dd4b96	0.0001055218
27	0xbb74f9e2	-0.0037380387
28	0x38a827b9	8.018263e-05
29	0xb8ac6c13	-8.2217295e-05
30	0x3b279417	0.0025570446
31	0xb9029322	-0.00012452577
32	0x390918d6	0.0001307459
33	0x3ba8564e	0.0051372414
34	0xb906ea44	-0.00012866507
35	0xb6c49f9e	-5.859837e-06
36	0x3c081fc9	0.008308359
37	0xb8d80ee7	-0.000103024584
38	0xb84ab503	-4.8329133e-05
39	0xbc73aab0	-0.014872238
40	0xb8fd2a2a	-0.00012071834
41	0xb8bbf990	-8.9633395e-05
42	0xbea78fbd	-0.3272685
43	0xb8cf8105	-9.894561e-05
44	0xb83390ab	-4.281166e-05
45	0x3df5e1a8	0.12005931
46	0x38c341d7	9.310588e-05
47	0x38db3a69	0.000104536135
48	0x3b94e20f	0.00454355
49	0x38db70df	0.00010463758
50	0x389e63e9	7.552637e-05
51	0xbb2597eb	-0.0025267552
52	0xb90a82f5	-0.00013209491
53	0x38fe1ced	0.00012117052
54	0x3a7acd94	0.00095673767
55	0xb8669f9d	-5.4984925e-05
56	0xb8ce9558	-9.850663e-05
57	0x3e0034e5	0.12520178
58	0x373173b1	1.0576959e-05
59	0xb8f6dd1e	-0.000117713804
60	0x3beb0d8b	0.0071732453
61	0x38d16d5d	9.986267e-05
62	0x37e71f98	2.7552058e-05
63	0x3ed7218e	0.42017788
64	0xb6905932	-4.301918e-06
65	0x38738e5c	5.8068297e-05
66	0x3ed89828	0.42303586
67	0xb8b699c4	-8.707077e-05
68	0xb79092c5	-1.7234483e-05
69	0x3ddd17bf	0.10795545
70	0x38c9a5e2	9.615325e-05
71	0xb84683f9	-4.7329788e-05
72	0xbddf6cbf	-0.109094135
73	0x38ae55fa	8.312981e-05
74	0xb7dcbfd8	-2.6315378e-05
75	0x3e1b6eb1	0.15178944
76	0xb888a4c1	-6.515673e-05
77	0xb8f94eb7	-0.00011887907
78	0x3e3a9369	0.18220295
79	0x387d2012	6.034977e-05
80	0x3900ff0d	0.00012302045
81	0x3bae8f22	0.0053271214
82	0xb875673c	-5.8508696e-05
83	0x38e5b1c1	0.0001095268
84	0x3e088087	0.1333028
85	0xb88e0353	-6.771707e-05
86	0xb80bb061	-3.3304448e-05
87	0x3bbcee25	0.0057656937
88	0x38e34c1e	0.000108383814
89	0x36c2a9d4	5.801421e-06
90	0xba0c70d4	-0.0005357389
91	0xb9fdb9f1	-0.00048394458
92	0xb87667f6	-5.874779e-05
93	0xba865b90	-0.0010250676
94	0x3a785ddf	0.0009474437
95	0xb7a9445c	-2.0178202e-05
96	0x3ce87019	0.028373765
97	0xbe94d0e9	-0.29065636
98	0xb723d4ea	-9.76513e-06
99	0x3cae57ad	0.021282041
100	0x3e2b5631	0.16732098
101	0x3869edfe	5.5773176e-05
102	0x3e16d9d0	0.14731526
103	0xbe1296bc	-0.14315313
104	0x37fd9a64	3.0231844e-05
105	0xbda2a34a	-0.07941301
106	0x3df9fd7b	0.12206551
107	0xb853fe1b	-5.0542974e-05
108	0x399714e0	0.00028816517
109	0xb8d2207a	-0.000100196296
110	0xb8b521c2	-8.6370404e-05
111	0xbde0a680	-0.10969257
112	0x3e114519	0.14186515
113	0xb8047800	-3.158301e-05
114	0xbb1de908	-0.0024095196
115	0x3bed1ab9	0.0072358516
116	0xb87b0615	-5.9848728e-05
117	0xbc75058d	-0.014954937
118	0x3c99a6a0	0.01875621
119	0xb8ea1988	-0.00011162745
120	0x3b1866f7	0.0023254731
121	0x3d53c9b3	0.051706027
122	0xb7b6a401	-2.1772461e-05
123	0x3cffa13d	0.031204814
124	0xbea47a86	-0.32124728
125	0xb8125dd3	-3.4896493e-05
126	0xbd546857	-0.05185732
127	0x3dcdab93	0.10042491
128	0xb78c08bb	-1.6693366e-05
129	0x3ce80c34	0.028326131
130	0xbe945c83	-0.2897683
131	0x390a503d	0.00013190597
132	0x3e1e5e0f	0.15465568
133	0xbe4e69b7	-0.20157515
134	0xb8c74691	-9.5022035e-05
135	0xbdf489b8	-0.1194033
136	0x3e1e49aa	0.15457788
137	0x38b6396f	8.689134e-05
138	0xbd1f8a1c	-0.03895007
139	0x3eaea55f	0.34110543
140	0x390cafe3	0.00013416963
141	0xbdc1c1de	-0.09460805
142	0x3e0e10ba	0.13873568
143	0x38d68dcc	0.00010230727
144	0xbdc441cc	-0.09582862
145	0x3dbf1d52	0.09331764
146	0x386c4673	5.6332396e-05
147	0xbdcb927d	-0.0994005
148	0x3e03a0ff	0.12854384
149	0xb8b1e2d3	-8.482267e-05
150	0xbdc69693	-0.096966885
151	0x3e40816c	0.1879937
152	0xb88df8cb	-6.769745e-05
153	0xbcf0e525	-0.02940614
154	0x3d8c109d	0.06839106
155	0x386eb8ca	5.691572e-05
156	0xbcc7f16d	-0.024407113
157	0x3e0c58b0	0.13705707
158	0xb888621f	-6.503262e-05
159	0x3cb6f85b	0.022335222
160	0x3e33ec45	0.17570598
161	0x385371f1	5.0412436e-05
162	0x3e088848	0.13333237
163	0xbe31fe7e	-0.17382237
164	0xb798106f	-1.8127465e-05
165	0x3ce893c1	0.028390767
166	0xbe94bd47	-0.29050657
167	0xb8ce5ffb	-9.840723e-05
168	0x3cb71144	0.0223471
169	0x3e33f2c6	0.1757308
170	0x37952f12	1.7784103e-05
171	0xbd689b41	-0.056788687
172	0x3dd05640	0.10172701
173	0x38023cb4	3.105095e-05
174	0xbd26b45a	-0.04069934
175	0x3eb5d173	0.3551136
176	0x366c5bbc	3.5220137e-06
177	0xbb3bd821	-0.0028662758
178	0xbc350568	-0.011048652
179	0xb8344357	-4.297806e-05
180	0xb902469c	-0.0001242407
181	0x37d60321	2.5512245e-05
182	0xb8ffe124	-0.00012201283
183	0xb73c49f9	-1.1222896e-05
184	0xb8e1c991	-0.00010766381
185	0x38b0d13a	8.4313055e-05
186	0xb886c41c	-6.426146e-05
187	0xb8c4b1c2	-9.379118e-05
188	0x386f7653	5.709224e-05
189	0x379cf15d	1.8709043e-05
190	0x38618198	5.3764874e-05
191	0xb8d651be	-0.00010219541
192	0xb88adc40	-6.6213775e-05
193	0xb746890d	-1.1833629e-05
194	0x38f77c64	0.000118010474
195	0x3761b172	1.345236e-05
196	0xb87c46c8	-6.0147402e-05
197	0x38959f7b	7.134579e-05
198	0xb8520041	-5.0068138e-05
199	0x38e0f486	0.000107266984
200	0xb868d683	-5.551289e-05
201	0x382498df	3.924302e-05
202	0x390c6b64	0.00013391447
203	0x3906a91d	0.00012842235
204	0xb7c111d8	-2.3015702e-05
205	0x381e0299	3.7672555e-05
206	0xb883ea63	-6.290225e-05
207	0x388dba8b	6.75815e-05
208	0x383285f7	4.256327e-05
209	0xb88c03ec	-6.676451e-05
210	0x38f108cc	0.00011493414
211	0x388ecc81	6.8091795e-05
212	0xb6cdb0c1	-6.130053e-06
213	0x38b7b36c	8.75954e-05
214	0xb90b34a2	-0.0001327568
215	0xb638f3ac	-2.7559972e-06
216	0xb8dab21f	-0.00010428228
217	0xb88b3cf7	-6.639392e-05
218	0x389dc947	7.523834e-05
219	0x38bc6d28	8.9848705e-05
220	0x35c6a584	1.4800321e-06
221	0x38c1ba1f	9.237625e-05
222	0x38fe46ed	0.00012124875
223	0xb8adae11	-8.281705e-05
224	0xb887d941	-6.477768e-05
225	0x38de4a15	0.00010599584
226	0x360d5521	2.1060189e-06
227	0xb89b19cc	-7.395781e-05
228	0xb8003093	-3.0562816e-05
229	0xb8dc4d6c	-0.000105048384
230	0xb8c27326	-9.272089e-05
231	0x38c39add	9.32717e-05
232	0xb8c9367c	-9.5945754e-05
233	0x38f94467	0.00011885986
234	0x3858252b	5.153303e-05
235	0x38cd490c	9.788768e-05
236	0x3797d5a7	1.8100092e-05
237	0x385379e4	5.041984e-05
238	0x38b386a7	8.560466e-05
239	0x372bb7ee	1.0235219e-05
240	0xb8abdf9f	-8.195568e-05
241	0xb8a33d7d	-7.783899e-05
242	0xb85c2f20	-5.2495976e-05
243	0xb7103e4b	-8.597573e-06
244	0x38be3363	9.0694775e-05
245	0x3904ab54	0.00012652326
246	0x384de281	4.9086757e-05
247	0x38fcdd46	0.00012057512
248	0x3673a959	3.6308395e-06
249	0x38598f6b	5.18704e-05
250	0xb843ffa3	-4.6729703e-05
251	0x38ff919c	0.000121864694
252	0x3881dae6	6.191972e-05
253	0x38fc3d18	0.00012027676
254	0xb7ec5059	-2.8170807e-05
255	0x38b0783d	8.41473e-05

model.flow.0.masked_mlp_shift.0.bias f4 [90]
0	0xbdf81883	-0.1211405
1	0xbdd40bce	-0.10353814
2	0xb9285b8a	-0.0001605583
3	0xbdb97704	-0.090559036
4	0xba03d3d6	-0.00050288194
5	0xbd712126	-0.058869503
6	0xbe0ee9c0	-0.13956356
7	0xb92b3141	-0.0001632618
8	0xbd95f64a	-0.073223665
9	0xbe262082	-0.16223338
10	0xbe226521	-0.1585889
11	0xbe618b8e	-0.22025892
12	0xbe614831	-0.22000195
13	0xbe4ffc5f	-0.20311116
14	0xb9279bb9	-0.00015984372
15	0xbd760828	-0.060066372
16	0xbd93c40c	-0.07215127
17	0xbe3dc5ff	-0.18532561
18	0xbdbb83c2	-0.0915599
19	0xbd80f0d5	-0.06295935
20	0xbe28e011	-0.16491725
21	0xbb2f144b	-0.0026714976
22	0xbb303cb6	-0.0026891655
23	0xbd5cdbf1	-0.05392069
24	0xbe11c05c	-0.14233536
25	0xbd8a278a	-0.06745823
26	0xbdbe9e97	-0.09307592
27	0xbd63063b	-0.055425864
28	0xbd89385f	-0.06700205
29	0xbe01b14e	-0.12665293
30	0xbd03830f	-0.03210741
31	0xba5e6a74	-0.00084844907
32	0x3bff6d00	0.0077949762
33	0xbdf5745e	-0.11985086
34	0xbd551407	-0.052021053
35	0xbd99ba25	-0.075062074
36	0xbb9ce965	-0.004788565
37	0xbda926c6	-0.082593486
38	0xbd8f27f1	-0.0699004
39	0xbde637a4	-0.11241081
40	0xbcd46194	-0.025925435
41	0x3c6bdb8d	0.014395607
42	0xbd0c2b26	-0.034220837
43	0x3bfe6fc1	0.007764787
44	0xbde2d554	-0.11075845
45	0xbdb82919	-0.08992214
46	0xbc9a0f54	-0.018806137
47	0xbdc055b4	-0.093913466
48	0xbd164232	-0.036684223
49	0xbd993569	-0.0748089
50	0xbd821daf	-0.06353318
51	0xbc45304f	-0.012035443
52	0xbbd2ff42	-0.0064391205
53	0xbe00e52b	-0.1258742
54	0xbdc37637	-0.09544032
55	0x3bff5a27	0.0077927294
56	0xbe00e681	-0.1258793
57	0xbd313331	-0.04326171
58	0xbca037d0	-0.019557863
59	0xbd33214b	-0.043732923
60	0xb8a2b226	-7.757945e-05
61	0x3875c54e	5.8596306e-05
62	0x38eb25c7	0.0001121271
63	0x36f4f6f4	7.300516e-06
64	0x38d699f2	0.0001023299
65	0xb86b5a5f	-5.611253e-05
66	0xb90e3548	-0.00013562024
67	0xb85ef287	-5.3154796e-05
68	0xb8fca416	-0.0001204686
69	0xb90a3db2	-0.00013183689
70	0xb8b2895f	-8.513289e-05
71	0xb8c2fa3b	-9.29725e-05
72	0x390b8a2c	0.00013307546
73	0x38384597	4.393383e-05
74	0x35694b63	8.6908966e-07
75	0xb82c2039	-4.1038005e-05
76	0xb88b2633	-6.635152e-05
77	0xb84deb02	-4.9094677e-05
78	0xb836c743	-4.357776e-05
79	0x38207809	3.8258764e-05
80	0xb89aec66	-7.387325e-05
81	0xb79f1c8d	-1.8967572e-05
82	0x38977b72	7.2232346e-05
83	0xb8a991c7	-8.085701e-05
84	0x389cb104	7.4716314e-05
85	0x38d1d6bd	0.00010005895
86	0xb8b7fe85	-8.773528e-05
87	0x38f5098d	0.00011684289
88	0xb8bbe72c	-8.959914e-05
89	0x390c658b	0.00013389268

model.flow.0.masked_mlp_shift.1.weight f4 [60, 90]
0	0xbdc7e111	-0.09759725
1	0xbdb5888d	-0.088639356
2	0xbdfda81f	-0.12385582
3	0xbd94dcce	-0.07268678
4	0x3a781eb9	0.0009465027
5	0xbd4bd7d1	-0.049766365
6	0xbde6da41	-0.112720974
7	0xbdfe0e32	-0.12405051
8	0xbe06bd6c	-0.13158196
9	0xbe0bf513	-0.13667707
10	0xbe076461	-0.13221885
11	0xbe3c0549	-0.18361391
12	0xbe3e6c68	-0.18596041
13	0xbe2d5619	-0.16927375
14	0xbdfd7b23	-0.12377002
15	0xbd181bce	-0.03713589
16	0xbd733689	-0.05937818
17	0xbe19dcde	-0.1502566
18	0xbd9838c0	-0.07432699
19	0xbd25c659	-0.040472362
20	0xbe0f0ba2	-0.13969281
21	0xbe0894b9	-0.13337983
22	0xbe0887f8	-0.13333118
23	0xbcec6a1d	-0.028859193
24	0xbeaf0624	-0.34184372
25	0xbd3fcddb	-0.04682718
26	0xbdd86aad	-0.10567222
27	0xbd3372bc	-0.04381059
28	0xbd1fc18b	-0.039002936
29	0xbdd974c7	-0.10617977
30	0x37caafa4	2.4162066e-05
31	0xb77b4943	-1.4977823e-05
32	0x3785e955	1.596349e-05
33	0xb7a9f13b	-2.0258702e-05
34	0x36e3b1d5	6.7858296e-06
35	0xb722aef7	-9.69669e-06
36	0x37cdf194	2.4550398e-05
37	0xb7cb6de2	-2.4250654e-05
38	0xb785dfd9	-1.5959073e-05
39	0xb785c578	-1.5946789e-05
40	0x378ea39f	1.7003911e-05
41	0xb7be969d	-2.27199e-05
42	0x37cf5ee4	2.472051e-05
43	0x37912a61	1.7305081e-05
44	0x36528d23	3.137459e-06
45	0x37c1829b	2.306821e-05
46	0xb788ae68	-1.6293678e-05
47	0x3748f4d7	1.1977935e-05
48	0xb77e33ca	-1.5151638e-05
49	0xb504798c	-4.9350706e-07
50	0x376816a8	1.3833553e-05
51	0xb7c0ee3b	-2.2999118e-05
52	0x37763f74	1.4677516e-05
53	0xb6d5f618	-6.3765438e-06
54	0xb700cc87	-7.677015e-06
55	0xb727d2f6	-1.0003094e-05
56	0x3682e19a	3.9005654e-06
57	0xb779fa1b	-1.4899789e-05
58	0x379dba7d	1.8802699e-05
59	0x372a4e38	1.0151001e-05
60	0x372371a8	9.74202e-06
61	0xb707a565	-8.085136e-06
62	0x372a28ac	1.0142259e-05
63	0xb56d2858	-8.834809e-07
64	0x356ac38e	8.745636e-07
65	0xb747d5ee	-1.1911134e-05
66	0x37983d1c	1.8148268e-05
67	0x3653c15b	3.1553998e-06
68	0xb7b9f9ea	-2.2170094e-05
69	0xb71713d4	-9.004918e-06
70	0xb735893e	-1.0820395e-05
71	0x331ff0b7	3.7239e-08
72	0xb61f6467	-2.3751288e-06
73	0xb75b53eb	-1.3072956e-05
74	0xb7c4c8f7	-2.3458602e-05
75	0xb6a64a22	-4.9558157e-06
76	0x3775538d	1.4622591e-05
77	0x36f910b8	7.4227246e-06
78	0xb7cba4d6	-2.4276243e-05
79	0x379d3638	1.8741106e-05
80	0x376422db	1.3597974e-05
81	0xb71bfdb4	-9.29779e-06
82	0xb7059ca0	-7.963885e-06
83	0xb6f99f5d	-7.4393306e-06
84	0xb6711fdc	-3.5930343e-06
85	0xb791ac0d	-1.7365464e-05
86	0xb62075d2	-2.3910438e-06
87	0x37c41ac0	2.3377477e-05
88	0xb68d06a5	-4.202901e-06
89	0x35374334	6.8270606e-07
90	0x3e0b5e1b	0.13610117
91	0x3ddd9942	0.10820247
92	0xbd8de7d8	-0.06928986
93	0x3da17317	0.0788328
94	0xbb1298c0	-0.0022368878
95	0x3d8a58f5	0.067552485
96	0x3e246c84	0.1605702
97	0xbd8d414c	-0.0689722
98	0xbdbd1c31	-0.09233893
99	0x3e35ebc9	0.17765726
100	0x3e29cbd8	0.16581666
101	0x3e5a9d18	0.21348989
102	0x3e6740d3	0.22583322
103	0x3e69d196	0.22833857
104	0xbd8d6255	-0.06903521
105	0xbda1fd37	-0.07909625
106	0x3da14f96	0.07876508
107	0x3e4a93f5	0.19783004
108	0x3dca593d	0.09880302
109	0xbda65a93	-0.081227444
110	0x3e30f10c	0.17279452
111	0xbde9f2f6	-0.11423294
112	0xbde8c8b1	-0.11366404
113	0xbd886f5e	-0.066618666
114	0x3dadc6bd	0.08485172
115	0xbdd139ef	-0.10216128
116	0xbe05fc9d	-0.13084646
117	0x3d74d4b8	0.059773177
118	0xbda81386	-0.08206849
119	0x3e09a84d	0.13443108
120	0xb7b12e3c	-2.1121574e-05
121	0x374534f1	1.1754441e-05
122	0xb793989b	-1.7594828e-05
123	0xb60e8502	-2.123707e-06
124	0xb7bd7ff5	-2.259014e-05
125	0x37c80648	2.3844783e-05
126	0xb76d9295	-1.416043e-05
127	0xb6028bb7	-1.9452834e-06
128	0xb612cf79	-2.187646e-06
129	0xb7c6101b	-2.3610939e-05
130	0x3773864d	1.4515198e-05
131	0x3770e243	1.4357795e-05
132	0x379a3c80	1.8386403e-05
133	0x37924981	1.7438784e-05
134	0x378ea1bc	1.7003033e-05
135	0xb7129cb3	-8.7387625e-06
136	0x375b1905	1.30592425e-05
137	0xb77fe856	-1.5253279e-05
138	0x37ad75df	2.0678095e-05
139	0xb6cbc45a	-6.07273e-06
140	0x37808262	1.5319503e-05
141	0xb78dca62	-1.6902752e-05
142	0x379fae43	1.9035424e-05
143	0xb7b211b6	-2.12275e-05
144	0x368a5af2	4.123308e-06
145	0x37029776	7.783869e-06
146	0xb773c04b	-1.45287e-05
147	0x376494ee	1.3624534e-05
148	0x368baf18	4.1629064e-06
149	0x375d6492	1.3196042e-05
150	0xb7b57538	-2.1631466e-05
151	0xb7863f2c	-1.6003461e-05
152	0xb7654e36	-1.3667674e-05
153	0x368653e8	4.003279e-06
154	0xb7239f20	-9.752606e-06
155	0xb6d9f9ce	-6.496185e-06
156	0x3786a86f	1.6052478e-05
157	0x378e224a	1.6943686e-05
158	0xb7a889d5	-2.0091344e-05
159	0xb64f4108	-3.0883257e-06
160	0x378337b7	1.5642361e-05
161	0xb79015f8	-1.7176368e-05
162	0x36380afb	2.7424528e-06
163	0x37bebe69	2.2738432e-05
164	0x37b590bc	2.1644279e-05
165	0xb6b3592c	-5.3449967e-06
166	0x3782df82	1.5601287e-05
167	0xb757ec26	-1.2869981e-05
168	0xb7602859	-1.3360835e-05
169	0xb6a74f50	-4.986221e-06
170	0x37ba141b	2.218229e-05
171	0xb797f2e8	-1.8113715e-05
172	0x376ec634	1.4232053e-05
173	0xb7a2bd29	-1.939999e-05
174	0x37987311	1.8173394e-05
175	0xb79dd31a	-1.881416e-05
176	0x374bdc30	1.2151009e-05
177	0xb70d8a7f	-8.436501e-06
178	0xb73adf4c	-1.1138454e-05
179	0x3783a3e7	1.569274e-05
180	0xbdf7e28a	-0.12103756
181	0xbddc2df6	-0.10750954
182	0x3de18d97	0.11013334
183	0xbde6467b	-0.11243912
184	0xba67d76c	-0.0008844051
185	0xbd75a51d	-0.059971917
186	0xbe07699d	-0.13223882
187	0x3de10a8c	0.1098834
188	0x3e0ec126	0.13940868
189	0xbe1e7fba	-0.15478411
190	0xbe2003cd	-0.1562645
191	0xbe60d92a	-0.21957842
192	0xbe6612d7	-0.22468124
193	0xbe3512b8	-0.17682922
194	0x3de1c719	0.11024303
195	0xbd379efb	-0.04482935
196	0xbd9a5503	-0.07535746
197	0xbe30612a	-0.17224565
198	0xbdc721c6	-0.09723239
199	0xbd4936b3	-0.04912443
200	0xbe2d6305	-0.16932304
201	0xbda89fb8	-0.08233589
202	0xbda90a01	-0.08253861
203	0xbd400893	-0.046883177
204	0xbc7c0072	-0.015380966
205	0xbd5dc9c8	-0.05414751
206	0xbdeccaa1	-0.11562086
207	0xbd6e43c1	-0.058170084
208	0xbd62af46	-0.055342935
209	0xbe0649ff	-0.13114165
210	0xb46c2741	-2.1993493e-07
211	0x3784625f	1.5781434e-05
212	0x3757e4a1	1.286823e-05
213	0xb71a0e2e	-9.182417e-06
214	0x372f4506	1.0446884e-05
215	0xb581bfde	-9.66709e-07
216	0xb767f1aa	-1.382494e-05
217	0xb76a4c77	-1.396529e-05
218	0x36f7d770	7.386254e-06
219	0xb7b7b0c2	-2.189761e-05
220	0xb79d63cd	-1.8762332e-05
221	0x373718ae	1.0913396e-05
222	0xb5d17df1	-1.5608367e-06
223	0xb7ab6131	-2.0430047e-05
224	0xb7976b44	-1.8050552e-05
225	0x353d20ce	7.0455724e-07
226	0x37065a8d	8.008105e-06
227	0xb7cabc22	-2.4167883e-05
228	0xb6cfc5ac	-6.1920928e-06
229	0xb6c0f0b7	-5.750069e-06
230	0x3797a473	1.807718e-05
231	0xb703279a	-7.817429e-06
232	0xb695b820	-4.461981e-06
233	0x3775cbda	1.4650601e-05
234	0x37a03fea	1.9103249e-05
235	0xb7b63442	-2.1720425e-05
236	0xb72ec8b7	-1.0417941e-05
237	0xb738ee2f	-1.1022711e-05
238	0xb769d4fe	-1.3937473e-05
239	0xb79e1cd1	-1.8848486e-05
240	0xb6cd8936	-6.1254495e-06
241	0xb7835408	-1.5655547e-05
242	0xb791b253	-1.7368386e-05
243	0xb63ded1c	-2.830121e-06
244	0x37c7fe04	2.3840934e-05
245	0x37c4b908	2.3451183e-05
246	0x37a98f42	2.021308e-05
247	0x374c5a63	1.2180392e-05
248	0xb6a0b664	-4.7896046e-06
249	0x3643180c	2.9071261e-06
250	0xb7ce33fb	-2.4581319e-05
251	0x36c72091	5.9344534e-06
252	0xb70f5a2c	-8.544459e-06
253	0x374d7613	1.22464435e-05
254	0xb7cb0e7d	-2.4206232e-05
255	0xb7c92a13	-2.398066e-05

model.flow.0.masked_mlp_shift.1.bias f4 [60]
0	0x3e6f1a06	0.23349771
1	0xbe86addd	-0.26304522
2	0x3e89b769	0.26897743
3	0x3e7056ce	0.23470613
4	0xbe97803a	-0.29590017
5	0x3e8ec3b4	0.27883685
6	0xbe99e961	-0.30060866
7	0xbe6b5c27	-0.22984372
8	0xbe8cf844	-0.27533162
9	0xbe407792	-0.18795612
10	0x3e6effcb	0.23339765
11	0x3e86705f	0.26257607
12	0xbe951843	-0.29120073
13	0x3e503ea4	0.20336396
14	0xbe96441f	-0.29348847
15	0xbe8f35b7	-0.2797067
16	0xbe982e48	-0.2972281
17	0xbe707dc5	-0.23485477
18	0xbe97d8b8	-0.2965753
19	0x3e0d2a59	0.13785686
20	0x3de7397a	0.1129026
21	0xbe21abe4	-0.15788227
22	0xbe4ece0d	-0.2019579
23	0xbe49248e	-0.19642851
24	0xbe1331b8	-0.14374435
25	0xbe4ff5e4	-0.20308644
26	0xbe406cb7	-0.18791471
27	0x3e00bbfb	0.12571709
28	0xbe050226	-0.12989101
29	0xbe087e2c	-0.13329381
30	0xbdb0f446	-0.086403415
31	0x3e3256e3	0.17415957
32	0xbdc5c5af	-0.09656846
33	0xbe50940e	-0.20368978
34	0xbdaaa548	-0.08332306
35	0xbe00fe16	-0.12596926
36	0x3da8e800	0.082473755
37	0xbe066509	-0.1312448
38	0xbdfb3e9e	-0.12267803
39	0x3e20d290	0.15705323
40	0xb69a57a4	-4.5997604e-06
41	0x378aff07	1.6569638e-05
42	0xb661f7ec	-3.3671922e-06
43	0x377011d7	1.4309268e-05
44	0xb7bacb51	-2.2267604e-05
45	0xb7c69d23	-2.3676612e-05
46	0x36642069	3.3993513e-06
47	0xb731377b	-1.056294e-05
48	0xb7c21790	-2.3137574e-05
49	0xb7c23a5f	-2.3153783e-05
50	0xb6553af4	-3.1773789e-06
51	0xb776f5be	-1.4719959e-05
52	0x37a28e23	1.9378092e-05
53	0x37c74556	2.3754936e-05
54	0xb621663a	-2.4050373e-06
55	0x36d9632e	6.47865e-06
56	0x369924bc	4.5640318e-06
57	0x37ca8d6e	2.4146135e-05
58	0x37a8a1bb	2.0102472e-05
59	0xb5a0b764	-1.1974303e-06

model.flow.0.masked_mlp_shift.2.weight f4 [30, 60]
0	0xbeaa2a94	-0.3323561
1	0x3e53b3f7	0.2067412
2	0xbe56048d	-0.20900173
3	0xbeaacebd	-0.33360854
4	0x3e4e23a0	0.20130777
5	0xbe81b730	-0.25335073
6	0x3e5024db	0.20326559
7	0x3e347e57	0.1762632
8	0x3e474e6b	0.19463508
9	0x3e251037	0.16119467
10	0xbea820fe	-0.3283767
11	0xbe80ea3b	-0.25178704
12	0x3e4c9a6f	0.19980787
13	0xbf016138	-0.5053897
14	0x3e4ce76d	0.20010157
15	0x3e43f7f2	0.19137552
16	0x3e4e7d23	0.20164923
17	0x3e2b0e78	0.16704738
18	0x3e4edc40	0.20201206
19	0xbf5eadd3	-0.86983985
20	0x37d35a13	2.5195104e-05
21	0x3798b0e7	1.8202189e-05
22	0xb758221a	-1.2882543e-05
23	0x3614ac87	2.2154143e-06
24	0x37f3bfdd	2.90572e-05
25	0xb721156d	-9.601336e-06
26	0x3782ebaf	1.5606956e-05
27	0x3787233e	1.6109665e-05
28	0xb78dacfb	-1.688906e-05
29	0x36814ef8	3.8536928e-06
30	0xb77606a8	-1.4664292e-05
31	0xb7522e11	-1.2527701e-05
32	0x37a81f30	2.0041683e-05
33	0x3505eed0	4.989388e-07
34	0xb79d18af	-1.8727353e-05
35	0xb782602e	-1.5541995e-05
36	0xb7c42f70	-2.338711e-05
37	0xb7e9a226	-2.785127e-05
38	0x34d2daa1	3.9274622e-07
39	0xb7bd1394	-2.2539672e-05
40	0xb771a468	-1.4402998e-05
41	0xb5d781bd	-1.6056507e-06
42	0x37b33d46	2.1366995e-05
43	0xb5c63eb1	-1.4770395e-06
44	0x371f92f2	9.511352e-06
45	0xb78bec2a	-1.6680064e-05
46	0x37f4de8e	2.9190702e-05
47	0x37cf843b	2.4737898e-05
48	0x3799aad3	1.8318568e-05
49	0x37b1bed9	2.1188915e-05
50	0x37ad1a8e	2.0635573e-05
51	0xb7de9547	-2.6533975e-05
52	0x37e0fd01	2.6820695e-05
53	0xb79dd860	-1.8816616e-05
54	0xb7e7e2b6	-2.7642916e-05
55	0xb767261b	-1.3777545e-05
56	0xb6e4a3d7	-6.814003e-06
57	0xb742939e	-1.1597671e-05
58	0xb66ff0df	-3.575398e-06
59	0xb7d49879	-2.534337e-05
60	0x3ebec946	0.37262934
61	0xbe7a3191	-0.2443297
62	0x3e8bd11a	0.2730797
63	0x3ec274e8	0.37979817
64	0xbe8c3ecc	-0.2739166
65	0x3e9e1f21	0.30883124
66	0xbe8c6cb7	-0.27426693
67	0xbe594b0e	-0.21220037
68	0xbe82d827	-0.25555536
69	0xbe30f70a	-0.17281738
70	0x3ebd9252	0.37025696
71	0x3ea002ab	0.31252035
72	0xbe898569	-0.26859596
73	0x3f09985d	0.5374811
74	0xbe8adef0	-0.27123213
75	0xbe851db9	-0.2599924
76	0xbe8cb491	-0.2748151
77	0xbe5c497a	-0.21512404
78	0xbe8d2c45	-0.27572837
79	0x3f675f6f	0.90379995
80	0x37cdb50f	2.4522216e-05
81	0xb7a69235	-1.9856825e-05
82	0xb7e897f2	-2.772731e-05
83	0xb6425185	-2.8955703e-06
84	0xb77554c5	-1.4622875e-05
85	0x37dee249	2.6569835e-05
86	0xb7a6081a	-1.9792515e-05
87	0xb69db251	-4.6997234e-06
88	0x3798cd2c	1.8215353e-05
89	0xb79c2df1	-1.8618042e-05
90	0xb7a9e019	-2.0250724e-05
91	0x37b29acd	2.1291338e-05
92	0x3628f5d7	2.5177048e-06
93	0x37cbf7a8	2.431481e-05
94	0x379d722d	1.8769026e-05
95	0xb7babc99	-2.226075e-05
96	0xb7b96969	-2.2102804e-05
97	0x3792890a	1.746837e-05
98	0x37a870c3	2.007967e-05
99	0x37887eaf	1.6271455e-05
100	0xb7e16143	-2.6867381e-05
101	0xb7d8f0bb	-2.5861305e-05
102	0x37a1847a	1.9254385e-05
103	0x37cfc4c6	2.4767953e-05
104	0x36b6d101	5.448354e-06
105	0x359aa454	1.152172e-06
106	0x37a1570c	1.923323e-05
107	0x3654fd78	3.1738e-06
108	0xb709d8bc	-8.216299e-06
109	0xb7c23780	-2.3152446e-05
110	0x378873e1	1.6266424e-05
111	0x37c5bb27	2.357138e-05
112	0xb712b3a7	-8.744107e-06
113	0xb7a61051	-1.979634e-05
114	0x378cab13	1.6768963e-05
115	0x370eff79	8.523341e-06
116	0x349a4fea	2.874288e-07
117	0xb7e81a17	-2.7668704e-05
118	0x372966d0	1.0097123e-05
119	0xb7ba5ac4	-2.2215194e-05
120	0xbebb1fa2	-0.3654757
121	0x3e741119	0.23834647
122	0xbe875dec	-0.26438844
123	0xbebbb264	-0.3665954
124	0x3e857127	0.2606289
125	0xbe9a8169	-0.30176857
126	0x3e8620db	0.26196942
127	0x3e54787d	0.20749088
128	0x3e7a6a8c	0.24454707
129	0x3e2eab5d	0.17057557
130	0xbeb9eb15	-0.36312166
131	0xbe997cc1	-0.29977992
132	0x3e8506c6	0.2598173
133	0xbf047cf3	-0.5175316
134	0x3e823082	0.25427634
135	0x3e80a2ef	0.25124308
136	0x3e83cde2	0.25743014
137	0x3e5a98ab	0.213473
138	0x3e86cba6	0.26327246
139	0xbf662edc	-0.8991525
140	0xb5b8f120	-1.3779245e-06
141	0x37d5e3bd	2.5497628e-05
142	0x36d904a1	6.467643e-06
143	0xb6bcb304	-5.6236768e-06
144	0xb7fb853e	-2.9983577e-05
145	0xb78d0d0f	-1.681459e-05
146	0x36f7067d	7.361929e-06
147	0xb7cfa6a4	-2.4753921e-05
148	0x379893b4	1.8188592e-05
149	0x37363f83	1.0862833e-05
150	0xb7254651	-9.851138e-06
151	0x37b45b2c	2.1500127e-05
152	0x37b66f53	2.174793e-05
153	0xb78fbef3	-1.7135846e-05
154	0x37bdf18a	2.2643031e-05
155	0xb5be7d39	-1.4192548e-06
156	0x36077a9e	2.018794e-06
157	0x37b74db7	2.1851489e-05
158	0x37a56200	1.9715168e-05
159	0xb6ef72c4	-7.1361155e-06
160	0x36ab3e1b	5.103427e-06
161	0xb7a72fdb	-1.9930236e-05
162	0x37dd5eda	2.6389422e-05
163	0x369f3af6	4.745433e-06
164	0xb76c0c5d	-1.4069575e-05
165	0xb7c2144f	-2.313606e-05
166	0xb786e761	-1.6081789e-05
167	0x37eafb59	2.8012017e-05
168	0x37217b7e	9.625101e-06
169	0xb681c815	-3.867792e-06
170	0x37cdd76c	2.4538218e-05
171	0xb6776eba	-3.687032e-06
172	0xb765f7a8	-1.3707126e-05
173	0x37864d5d	1.601007e-05
174	0xb663b38b	-3.3930144e-06
175	0xb6363488	-2.715069e-06
176	0xb7adb27c	-2.070632e-05
177	0x36bdf150	5.6607314e-06
178	0xb7090f2b	-8.169368e-06
179	0x375c47d0	1.3129742e-05
180	0xbebe84dc	-0.3721074
181	0x3e78e5a6	0.24306354
182	0xbe8b533b	-0.27211937
183	0xbec11354	-0.3771006
184	0x3e8875f7	0.266525
185	0xbe9d910b	-0.30774722
186	0x3e8c5af3	0.2741314
187	0x3e58d1e5	0.21173818
188	0x3e81d68a	0.25358993
189	0x3e30365a	0.17208233
190	0xbebdc69d	-0.37065592
191	0xbea0300d	-0.3128666
192	0x3e885fda	0.2663563
193	0xbf09a90f	-0.5377359
194	0x3e89d129	0.2691739
195	0x3e847816	0.25872868
196	0x3e89b6a3	0.26897153
197	0x3e5a9f7d	0.21349902
198	0x3e8ba16b	0.2727159
199	0xbf68d5dd	-0.9095133
200	0x36bbe718	5.599937e-06
201	0x378f6523	1.7094024e-05
202	0xb63c5488	-2.8063387e-06
203	0xb7fc645a	-3.008747e-05
204	0xb7d48c47	-2.5337691e-05
205	0x37da9df7	2.6061183e-05
206	0xb7dcd784	-2.6326401e-05
207	0xb796310c	-1.7904233e-05
208	0xb7765d97	-1.4684533e-05
209	0xb7d29408	-2.5102883e-05
210	0x379a8e26	1.8424424e-05
211	0x378e1007	1.6935182e-05
212	0x378da3b5	1.6884742e-05
213	0xb71055d4	-8.603052e-06
214	0x373ac075	1.1131274e-05
215	0xb7f85fe0	-2.9608549e-05
216	0x374e7da9	1.2307814e-05
217	0x37bf21ff	2.2784805e-05
218	0xb7aa7896	-2.0321731e-05
219	0x37f685f4	2.9387862e-05
220	0xb5bdc612	-1.4139243e-06
221	0xb71c6a26	-9.323039e-06
222	0xb7cf2dbc	-2.469762e-05
223	0xb5108224	-5.383356e-07
224	0xb6bd14b6	-5.63505e-06
225	0x370a02f2	8.226127e-06
226	0xb6eeb19b	-7.1136287e-06
227	0xb774b954	-1.4586683e-05
228	0xb7a8b382	-2.011075e-05
229	0x37b07319	2.1034431e-05
230	0xb738bcb6	-1.1011192e-05
231	0x37a58b66	1.9734445e-05
232	0xb74ed5fa	-1.2328377e-05
233	0xb78fcb5e	-1.7141629e-05
234	0x375f4fe9	1.3310441e-05
235	0x374333ac	1.16349365e-05
236	0x36989f6c	4.548512e-06
237	0xb799463e	-1.827173e-05
238	0xb7a79fe4	-1.9982406e-05
239	0x37a6df7a	1.9892806e-05
240	0xbe879d83	-0.2648736
241	0x3e20d9bd	0.1570806
242	0xbe1f58ad	-0.15561171
243	0xbe877eff	-0.26464078
244	0x3e166faf	0.14691041
245	0xbe4228ad	-0.18960829
246	0x3e1735a7	0.1476656
247	0x3e0d7ca1	0.13817073
248	0x3e15ef6a	0.1464211
249	0x3e0ef7ea	0.13961759
250	0xbe85853d	-0.26078215
251	0xbe437e25	-0.19091089
252	0x3e18bfb9	0.14916886
253	0xbed09087	-0.40735266
254	0x3e15f0ad	0.14642592
255	0x3e116750	0.14199567

model.flow.0.masked_mlp_shift.2.bias f4 [30]
0	0xbe83e835	-0.25763097
1	0x3ea6f458	0.32608294
2	0xbe9f40e1	-0.31104186
3	0xbea7bb08	-0.3275988
4	0xbe38b70c	-0.18038577
5	0x3da6513c	0.08120963
6	0x3ea6309d	0.32458964
7	0xbe8d967f	-0.27653882
8	0xbea4d727	-0.32195398
9	0x3ea539ff	0.3227081
10	0xbe38d1df	-0.1804881
11	0xbe412a2d	-0.18863745
12	0x3e5f40f7	0.21802126
13	0x3e5f7cd9	0.2182497
14	0xbe216f13	-0.15765028
15	0xbe4c4b83	-0.1995068
16	0xbe601844	-0.21884257
17	0xbe36f400	-0.17866516
18	0xbe2fa4ff	-0.17152785
19	0xbe5dea00	-0.21671295
20	0x3794a4b9	1.771968e-05
21	0x36bbf704	5.6017907e-06
22	0x36b2feeb	5.3344897e-06
23	0x37a26116	1.9357114e-05
24	0xb7ec14cb	-2.8143075e-05
25	0x363fc9ab	2.8578604e-06
26	0xb7238041	-9.7454185e-06
27	0x374dc097	1.2263793e-05
28	0xb7baab66	-2.2252741e-05
29	0x37a56995	1.9718698e-05

model.flow.0.masked_mlp_shift.3.weight f4 [3, 30]
0	0xb7b25e00	-2.1263026e-05
1	0xb7f71822	-2.9455932e-05
2	0xb7fbfe9d	-3.0040095e-05
3	0xb7640f85	-1.3593472e-05
4	0x37888346	1.6273592e-05
5	0xb80d637a	-3.3709664e-05
6	0xb8140244	-3.528806e-05
7	0x37b65cbb	2.1739272e-05
8	0x371cdf3f	9.350303e-06
9	0x3741ba29	1.154704e-05
10	0x3780ab47	1.5338546e-05
11	0x3828937c	4.0191677e-05
12	0xb79a7e59	-1.8417066e-05
13	0xb7b067a5	-2.1029098e-05
14	0x37d9119d	2.5876618e-05
15	0xb8063931	-3.2001353e-05
16	0xb733dcdc	-1.0720654e-05
17	0xb7cbcd55	-2.4295101e-05
18	0x378096dd	1.532904e-05
19	0xb7ff26b8	-3.0416399e-05
20	0x37399da6	1.1063565e-05
21	0xb8158cdb	-3.565555e-05
22	0xb711f288	-8.699142e-06
23	0xb8324310	-4.2500964e-05
24	0x38328361	4.2560863e-05
25	0xb7463f83	-1.1816507e-05
26	0x37b9aaa0	2.2133172e-05
27	0xb831e09a	-4.2409265e-05
28	0xb80b4dff	-3.3212822e-05
29	0xb7d0e315	-2.4901276e-05
30	0x3eac54fa	0.33658582
31	0xbeb970d9	-0.36218908
32	0x3eb7dc24	0.3591014
33	0x3eb9e2fe	0.36305994
34	0x3e8a7e0f	0.270493
35	0x3c624f4f	0.013812854
36	0xbeb909b3	-0.36140212
37	0x3ea59e2b	0.32347235
38	0x3eb90fcc	0.36144865
39	0xbeb8b64e	-0.36076587
40	0xb7c2db59	-2.3228744e-05
41	0xb8036c65	-3.1333784e-05
42	0xb7ded940	-2.6565627e-05
43	0xb71990df	-9.153241e-06
44	0x382aad66	4.069265e-05
45	0x34f4c3e9	4.5591085e-07
46	0x38095ee6	3.2751726e-05
47	0xb8279c6a	-3.9961575e-05
48	0xb7c61799	-2.3614428e-05
49	0xb828d316	-4.025091e-05
50	0xb7a9e34f	-2.0252219e-05
51	0xb803a660	-3.1387783e-05
52	0x3627b973	2.4992885e-06
53	0xb788ac0c	-1.6292579e-05
54	0xb80b9de9	-3.3287248e-05
55	0xb7cc2986	-2.4338031e-05
56	0x38232c2e	3.8903374e-05
57	0x381a03d6	3.6720034e-05
58	0x37b7cebc	2.1911568e-05
59	0xb72e0393	-1.037204e-05
60	0x3e2c7895	0.16842873
61	0xbe587be7	-0.21141015
62	0x3e53bcdf	0.20677517
63	0x3e58772d	0.21139212
64	0x3dfee1fe	0.12445448
65	0xbece1a04	-0.40254223
66	0xbe57fe3c	-0.21093076
67	0x3e3301a5	0.17481096
68	0x3e5509ae	0.20804474
69	0xbe57c25c	-0.21070236
70	0x3e945e74	0.28978312
71	0x3ea065df	0.3132772
72	0xbe9f438d	-0.31106225
73	0xbe9fbf93	-0.31200847
74	0x3e888562	0.26664263
75	0x3ea24b8d	0.31698266
76	0x3ea2dd7b	0.318096
77	0x3e93c2f3	0.28859672
78	0x3e8a9272	0.27064854
79	0x3e9da61a	0.30790788
80	0xb5b32568	-1.3347426e-06
81	0x37055961	7.948228e-06
82	0x37ec684f	2.8181965e-05
83	0xb68af1b5	-4.140859e-06
84	0x36f89fa9	7.409563e-06
85	0xb6c55dca	-5.881976e-06
86	0xb787cd2e	-1.6188798e-05
87	0xb74069e6	-1.1468748e-05
88	0x3757fb54	1.28735155e-05
89	0xb7af0dc9	-2.0868045e-05

model.flow.0.masked_mlp_shift.3.bias f4 [3]
0	0xbb451cd2	-0.0030076993
1	0xbe92aef6	-0.2864911
2	0xbe785ede	-0.24254939

model.flow.0.masked_mlp_scale.0.weight f4 [90, 3]
0	0xbdab9bee	-0.083793506
1	0xb8e3b016	-0.00010857002
2	0xb8ac8f9c	-8.2283485e-05
3	0x3e437f18	0.19091451
4	0x38a4b940	7.854635e-05
5	0xb877e783	-5.9105e-05
6	0xbe661ec4	-0.22472674
7	0xb87509ae	-5.8421567e-05
8	0xb72877e6	-1.0041496e-05
9	0x3e2971f3	0.16547374
10	0x38bac354	8.905554e-05
11	0x384bf6d9	4.8628866e-05
12	0xbdb58a21	-0.088642366
13	0xb7a1c965	-1.9286477e-05
14	0x38aebeb4	8.332488e-05
15	0x3dd923d5	0.106025375
16	0x374b6a42	1.2124483e-05
17	0xb74b391c	-1.211304e-05
18	0xbe3fafb2	-0.18719366
19	0xb8687321	-5.5420333e-05
20	0x38b1fe9d	8.487443e-05
21	0xbe2000c7	-0.15625297
22	0xb88a1f8f	-6.586231e-05
23	0x383716f4	4.3651977e-05
24	0xbe0af4b5	-0.13569911
25	0x386ace1e	5.598191e-05
26	0x388c772c	6.697918e-05
27	0xbd9aa51a	-0.07551022
28	0x38416915	4.611265e-05
29	0x38927b5c	6.9848e-05
30	0xbe1d6602	-0.15370944
31	0x38e8f32b	0.000111079156
32	0xb88e60d2	-6.789122e-05
33	0xbe1f983e	-0.1558542
34	0xb811b83d	-3.474228e-05
35	0xb8cc3e62	-9.739098e-05
36	0x3e2d2a8b	0.1691076
37	0xb8fcab7e	-0.00012048239
38	0x382e75d0	4.1594554e-05
39	0xbdc4c2fd	-0.096075036
40	0xb79f96b9	-1.9024463e-05
41	0x3908c096	0.00013041715
42	0x3e992497	0.29910728
43	0x3819dd14	3.6683938e-05
44	0x38ae5e94	8.314583e-05
45	0x3ea0e02e	0.31421036
46	0x384df9de	4.9108516e-05
47	0x3887186c	6.4418506e-05
48	0xbe69e5bc	-0.22841543
49	0xb7aff37e	-2.097501e-05
50	0x38de3e1a	0.00010597352
51	0xbe7af5be	-0.24507806
52	0xb67ef494	-3.7991313e-06
53	0x3821fbe3	3.861998e-05
54	0x3e4daeda	0.20086232
55	0xb8fe9101	-0.00012138673
56	0x385899d2	5.164167e-05
57	0x3e937f59	0.28808096
58	0xb83654f5	-4.3471304e-05
59	0x388dbe38	6.758835e-05
60	0xbe0d1581	-0.13777734
61	0x3694800d	4.425651e-06
62	0x384f1476	4.93717e-05
63	0xbdae09d4	-0.08497968
64	0x383b0ad1	4.4594348e-05
65	0xb7b35f0a	-2.1382719e-05
66	0xbe1fd20f	-0.15607475
67	0xb89eb5de	-7.5679025e-05
68	0x38b764ff	8.744932e-05
69	0xbe5c82f9	-0.21534337
70	0x389e9d26	7.563298e-05
71	0xb8ff9146	-0.00012186407
72	0x3e91030d	0.2832264
73	0xb7458a70	-1.17743475e-05
74	0x3663026c	3.3827046e-06
75	0xbe77d29e	-0.24201438
76	0x38e9b9e8	0.000111449335
77	0x39026b22	0.00012437676
78	0x3e99fd30	0.3007598
79	0x38e90779	0.00011111698
80	0x38962d90	7.161044e-05
81	0xbe1f022d	-0.15528174
82	0x38feb4ac	0.000121453166
83	0x3605cefd	1.9939027e-06
84	0xbe0a5a52	-0.13511017
85	0x38fac05b	0.00011956758
86	0xb830f707	-4.2191732e-05
87	0xbdbacedb	-0.09121486
88	0x38c686b2	9.466465e-05
89	0x38dd2bd3	0.00010546264
90	0x3c9efdf9	0.019408213
91	0xbe159874	-0.14608938
92	0xb900c061	-0.00012278698
93	0xbb3b9adb	-0.0028626237
94	0x3e609320	0.21931124
95	0xb808cecf	-3.2617532e-05
96	0xbd588b6c	-0.052867338
97	0x3e615e79	0.22008695
98	0x37eaa621	2.7972334e-05
99	0x3d0ef381	0.034900192
100	0xbdebd630	-0.115154624
101	0x37cb11fe	2.4207864e-05
102	0x3cbe1e16	0.023207705
103	0xbe16d94c	-0.1473133
104	0xb8e5e448	-0.000109620916
105	0xbdd0735a	-0.101782516
106	0xbebf6001	-0.37377933
107	0x374752c8	1.1880598e-05
108	0x3d9e6fe0	0.07736182
109	0xbea7fe0a	-0.32811004
110	0x38645617	5.4439613e-05
111	0xbe170fa5	-0.14752062
112	0x3e150652	0.14553192
113	0x383a1688	4.436684e-05
114	0xbd9cfafa	-0.076650575
115	0xbdba0f6e	-0.09084974
116	0xb8961e61	-7.158216e-05
117	0xbb97271f	-0.004612818
118	0x3e4133ed	0.18867464
119	0xb88b14dd	-6.6319226e-05
120	0xbbfb4d76	-0.007669146
121	0x3e3820e0	0.17981291
122	0x3815b5df	3.569375e-05
123	0xbcd868d4	-0.026417173
124	0x3e27efbc	0.16400045
125	0xb8ec196f	-0.00011258094
126	0xbc59372f	-0.013257786
127	0xbec47ee6	-0.38378066
128	0x37cf3012	2.4698707e-05
129	0x3d18a97a	0.037271
130	0xbdf7c5fb	-0.12098309
131	0x3849a5c3	4.8076512e-05
132	0xbd7a11e3	-0.061052214
133	0x3e70da0e	0.23520681
134	0x3909dc87	0.00013147491
135	0xbc9380c5	-0.018005738
136	0x3dbccf3e	0.09219216
137	0xb818fe2b	-3.6476336e-05
138	0x3e1b6077	0.15173517
139	0xbe359e68	-0.17736208
140	0x38479255	4.758158e-05
141	0xbb97dafa	-0.0046342583
142	0x3e41d2fa	0.18928137
143	0x389e8417	7.558631e-05
144	0xbc829686	-0.015940916
145	0x3d949346	0.07254653
146	0xb887921a	-6.464515e-05
147	0xbd5bb788	-0.053641826
148	0x3e4833d3	0.1955102
149	0xb8342819	-4.2952688e-05
150	0x3ca01ef2	0.019546006
151	0xbe1776a6	-0.14791355
152	0xb8efb7fb	-0.00011430677
153	0xbd24b3c2	-0.040210493
154	0x3e63b5d2	0.22237328
155	0x38e2f27c	0.00010821686
156	0x3cbfadee	0.023398366
157	0x3e3fbbb7	0.18723951
158	0x38dfa513	0.00010664216
159	0xbb974940	-0.0046168864
160	0x3e418397	0.18897854
161	0xb8c601fe	-9.441747e-05
162	0x3c418044	0.011810366
163	0xbe6b5122	-0.22980168
164	0xb896b1a5	-7.185646e-05
165	0xbd9b4817	-0.075821094
166	0xbdb9c3a3	-0.09070518
167	0xb8da7fd8	-0.00010418863
168	0x3c9cfc7c	0.019163363
169	0xbe154249	-0.14576067
170	0x390d22df	0.00013459798
171	0x3d75243d	0.059849013
172	0xbeab94cb	-0.33511958
173	0xb8cd6ec4	-9.7957934e-05
174	0xbb982cdf	-0.004644021
175	0x3e42c554	0.19020587
176	0xb6ec4c21	-7.0422107e-06
177	0x3c9f9f88	0.01948525
178	0xbe16e905	-0.14737327
179	0xb8d1f875	-0.00010012175
180	0xb8a1e378	-7.7194476e-05
181	0xb8b94663	-8.834598e-05
182	0x38147633	3.539603e-05
183	0x3898b5d4	7.281793e-05
184	0x390e02a6	0.00013543162
185	0xb8b4c5d0	-8.619914e-05
186	0x38adfd39	8.296449e-05
187	0xb8daebc1	-0.000104389626
188	0x3888e864	6.5282715e-05
189	0xb700a398	-7.667484e-06
190	0xb6972a75	-4.5050933e-06
191	0xb8a2a07d	-7.754655e-05
192	0x380f0594	3.4099052e-05
193	0x37913970	1.7312093e-05
194	0x36615841	3.3578983e-06
195	0x381d4dc2	3.7504135e-05
196	0x382cf20d	4.1233423e-05
197	0x31bb46f0	5.450481e-09
198	0x3823f566	3.9090773e-05
199	0xb88203e0	-6.199605e-05
200	0xb8fd1300	-0.00012067519
201	0xb8b3b36c	-8.568805e-05
202	0x389c86a8	7.463741e-05
203	0xb7cf04c2	-2.4678538e-05
204	0xb56e3395	-8.873697e-07
205	0x37c6f0c2	2.3715551e-05
206	0xb907e3cb	-0.00012959463
207	0x38385570	4.394859e-05
208	0x37f138e9	2.875594e-05
209	0x3805d353	3.1906482e-05
210	0xb6ce8940	-6.1552564e-06
211	0x382dd2a5	4.1442592e-05
212	0x38fbdd2d	0.0001200981
213	0xb887b347	-6.470695e-05
214	0x385ae453	5.2187894e-05
215	0xb900f144	-0.0001229691
216	0xb90312a9	-0.00012500085
217	0x36d7f264	6.4357173e-06
218	0xb822fb69	-3.8857954e-05
219	0x38e62183	0.00010973497
220	0x37566ad7	1.278027e-05
221	0x389eeb8c	7.577901e-05
222	0x38287782	4.016562e-05
223	0x38891955	6.5373875e-05
224	0xb715e366	-8.934037e-06
225	0x385df50e	5.291873e-05
226	0x37187263	9.086539e-06
227	0x38e80a64	0.000110645575
228	0x38ed15ff	0.00011305138
229	0xb609cbef	-2.0533296e-06
230	0x386b24c8	5.606262e-05
231	0x38f3f9ed	0.00011633695
232	0xb8d389f7	-0.00010086962
233	0x38fd20e2	0.00012070105
234	0xb8a51d6d	-7.873294e-05
235	0xb904b77b	-0.00012656853
236	0x38333d75	4.2734162e-05
237	0x38b719ee	8.73095e-05
238	0x37a1435b	1.922406e-05
239	0x37da0fef	2.5995045e-05
240	0xb778707d	-1.4808143e-05
241	0xb8a997cf	-8.0868245e-05
242	0x388c4c97	6.689986e-05
243	0x38c20814	9.2521455e-05
244	0x38e23d17	0.00010787899
245	0xb85b65a8	-5.2308344e-05
246	0x389c6d19	7.458981e-05
247	0xb83498b7	-4.305757e-05
248	0xb8a21e8c	-7.730452e-05
249	0x390212c6	0.0001240476
250	0xb9030cbc	-0.00012497877
251	0x39080801	0.00012972952
252	0xb81d85c6	-3.7556303e-05
253	0xb8e20c7a	-0.00010778844
254	0xb90442f7	-0.00012613447
255	0x389773e3	7.221827e-05

model.flow.0.masked_mlp_scale.0.bias f4 [90]
0	0x3e83a0b5	0.25708547
1	0x3db5acbf	0.08870839
2	0x3c1c5ce9	0.009543636
3	0x3dcfcd30	0.10146558
4	0x3e8311f0	0.25599623
5	0xbe20cfd2	-0.15704277
6	0x3d433905	0.0476618
7	0x3d84b91a	0.06480618
8	0xbe0a6191	-0.13513781
9	0x3e84f6b3	0.25969467
10	0xbde5d6d4	-0.11222616
11	0x3d846425	0.064644136
12	0x3dd45a4b	0.103687845
13	0x3e82992f	0.25507495
14	0x3bcaa5e8	0.0061843283
15	0xbd3c9972	-0.046044774
16	0xbdf55833	-0.11979713
17	0xbc1adb90	-0.009451762
18	0x3dbf269c	0.09333536
19	0xbc8fe8a9	-0.017566996
20	0xbe0cc25f	-0.13746022
21	0x3e7b6b6e	0.245527
22	0x3d848d8f	0.06472313
23	0x3cc1071d	0.023562962
24	0xbe1323c5	-0.14369114
25	0x3c27c1cf	0.010239079
26	0x3bcb9d6d	0.006213835
27	0x3d83e2e1	0.06439758
28	0xbe0f02f7	-0.13965975
29	0x3e77ff9b	0.242186
30	0x3ddf44e5	0.109018125
31	0x3d0854a8	0.03328386
32	0xbd5ad6cd	-0.053427506
33	0x3e0dfb8e	0.13865492
34	0x3dddbd8a	0.10827167
35	0xbd4f467f	-0.05060434
36	0xbd68949d	-0.056782354
37	0x3d6188e2	0.055062182
38	0xbdef5ad3	-0.11687245
39	0x3da2b3a6	0.079444215
40	0x3daa49a1	0.08314825
41	0x3da3ed59	0.08004255
42	0x3cbc42e6	0.022981118
43	0x3e145f00	0.14489365
44	0xbbd3fdba	-0.0064694555
45	0xbdd33f52	-0.10314812
46	0x3dc586f0	0.09644878
47	0x3da339cd	0.07970009
48	0xbda1fe67	-0.079098515
49	0x3d9048f9	0.070451684
50	0x3de13ebd	0.109982945
51	0xbd6e0589	-0.058110747
52	0xbcfe0256	-0.031006973
53	0x3da2f2e4	0.07956484
54	0x3ded0112	0.1157247
55	0xbdee3e56	-0.116329834
56	0x3dde3674	0.1085023
57	0x3d92bf57	0.071654014
58	0x3da40669	0.08009035
59	0x3de069d9	0.10957689
60	0xb8857017	-6.3628126e-05
61	0xb8cd45f8	-9.7881944e-05
62	0x370c752c	8.3719315e-06
63	0x38826319	6.2173414e-05
64	0x390b4145	0.00013280388
65	0xb899884d	-7.3209965e-05
66	0x38ba0e4f	8.871836e-05
67	0xb9050ce8	-0.00012688676
68	0x389aae42	7.37575e-05
69	0x3824f4a1	3.9328475e-05
70	0x3824bc69	3.9276118e-05
71	0xb8ff7694	-0.000121814344
72	0xb9082398	-0.0001298323
73	0x3905e5ef	0.00012769525
74	0xb90ab432	-0.00013227834
75	0xb88c6ce7	-6.696005e-05
76	0xb88c6152	-6.6938475e-05
77	0x38bbe6b0	8.959824e-05
78	0xb8fcdfe4	-0.00012057999
79	0x3907ca84	0.00012950046
80	0xb77233b9	-1.4436367e-05
81	0xb8d1a9a5	-9.997495e-05
82	0x383441a3	4.2976473e-05
83	0x38b36386	8.553923e-05
84	0x390d37f7	0.00013467656
85	0xb7f462f1	-2.913314e-05
86	0xb8b0c898	-8.4296975e-05
87	0xb7bb3f78	-2.2321692e-05
88	0xb8e88c06	-0.000110887035
89	0x374835bd	1.1933441e-05

model.flow.0.masked_mlp_scale.1.weight f4 [60, 90]
0	0xbe48e91a	-0.19620171
1	0x3d899ad1	0.06718982
2	0x3c6ed8f2	0.014578091
3	0x3d73f6c1	0.059561495
4	0xbe60ce6d	-0.21953745
5	0x3f047c53	0.51752204
6	0x3c76c363	0.015061232
7	0x3c647747	0.013944454
8	0xbd70ba19	-0.058771227
9	0xbe3f1aa1	-0.18662502
10	0xbd347f5d	-0.044066776
11	0x3c59c0d6	0.013290605
12	0x3d754c84	0.059887424
13	0xbe6aae94	-0.22918159
14	0x3df1643b	0.117866956
15	0x3e1fd74a	0.1560947
16	0xbc8313d9	-0.016000675
17	0x3c810cbf	0.015753148
18	0x3d9491e9	0.07254393
19	0x3e09b279	0.13446988
20	0xbd7734c1	-0.060353044
21	0xbe556947	-0.20840941
22	0x3c67f2d1	0.014157013
23	0x3c4646b4	0.012101818
24	0x3e632d7e	0.22185323
25	0x3c8c4242	0.017121438
26	0x3df4a281	0.11945058
27	0x3c7807d0	0.015138581
28	0xbd791f81	-0.06082106
29	0xbe652c53	-0.2238019
30	0xb75e2192	-1.3240047e-05
31	0xb54254ba	-7.2393925e-07
32	0x37957660	1.7817307e-05
33	0x37a8c169	2.0117224e-05
34	0x374f9c8c	1.237461e-05
35	0xb62c94a9	-2.5716529e-06
36	0xb7b1d876	-2.1200842e-05
37	0xb791657e	-1.7332608e-05
38	0xb7b6f0c0	-2.1808199e-05
39	0x37a534d0	1.9694126e-05
40	0xb6df247c	-6.6501652e-06
41	0x37a2252b	1.9329213e-05
42	0x37cdd52a	2.4537167e-05
43	0x353eddde	7.1103375e-07
44	0x377f3197	1.521073e-05
45	0xb74b7e6e	-1.212918e-05
46	0x374c5cb4	1.2180932e-05
47	0xb7a29e99	-1.9385758e-05
48	0x35af0928	1.3041181e-06
49	0x3658ef14	3.232567e-06
50	0x379fd667	1.9054116e-05
51	0xb7b0090b	-2.0985046e-05
52	0x37aa19e0	2.0277628e-05
53	0xb78d5611	-1.6848588e-05
54	0x3784a9ac	1.5814636e-05
55	0xb7241c1f	-9.781709e-06
56	0xb6a82b32	-5.0118188e-06
57	0x37b6e221	2.180139e-05
58	0x37326f24	1.0635504e-05
59	0xb73e6f5a	-1.1350809e-05
60	0x37c8f22e	2.3954632e-05
61	0xb78172a4	-1.5431382e-05
62	0x377ac622	1.4947293e-05
63	0x37b8ea10	2.2043503e-05
64	0x373c2c29	1.1215955e-05
65	0x3741f77d	1.1561319e-05
66	0xb72885f6	-1.00447705e-05
67	0xb7abde28	-2.0488238e-05
68	0x36dff44d	6.6743582e-06
69	0xb6756e98	-3.657222e-06
70	0x37538f08	1.2609882e-05
71	0x370d6061	8.426695e-06
72	0x3691fb40	4.350586e-06
73	0x37409e8b	1.14810055e-05
74	0xb78e8a6d	-1.6992179e-05
75	0xb6b37d01	-5.349168e-06
76	0xb77c07a5	-1.502215e-05
77	0x3741a301	1.1541649e-05
78	0xb624426c	-2.4476567e-06
79	0xb7ce9b18	-2.4629335e-05
80	0x36f316ef	7.244634e-06
81	0x37ab2ea4	2.0406507e-05
82	0x3711da14	8.693449e-06
83	0x366f482e	3.565579e-06
84	0xb7c745bb	-2.375512e-05
85	0xb68a15c3	-4.115254e-06
86	0xb7bc5cf2	-2.2454627e-05
87	0x3715485c	8.89794e-06
88	0x372dabaf	1.0351577e-05
89	0x36e234c1	6.741466e-06
90	0xbe655760	-0.22396612
91	0x3d6bcb6c	0.057567045
92	0x3cca22b2	0.024674747
93	0x3d4af51f	0.049550172
94	0xbe7ecda1	-0.24883129
95	0x3f0af424	0.5427878
96	0x3ccf9207	0.025338186
97	0x3cbe2be8	0.023214296
98	0xbd6692ee	-0.056292467
99	0xbe5acb50	-0.2136662
100	0xbd1aa1dd	-0.03775202
101	0x3cb78f9e	0.02240735
102	0x3d4cd787	0.05001023
103	0xbe84705e	-0.2586698
104	0x3de1f089	0.110322066
105	0x3e1a5a8a	0.150736
106	0xbb9bc28d	-0.004753417
107	0x3cc7dfa4	0.024398632
108	0x3d818270	0.06323707
109	0x3e029f48	0.12756073
110	0xbd6fa352	-0.058505364
111	0xbe71ed1d	-0.23625608
112	0x3cbf69f7	0.023365958
113	0x3cb2cebb	0.021827092
114	0x3e5dc3c0	0.21656704
115	0x3ce3c041	0.027801635
116	0x3de50637	0.11182826
117	0x3cc57a01	0.024106028
118	0xbd72d30c	-0.0592833
119	0xbe7aa792	-0.24477986
120	0xb7b618ee	-2.17077e-05
121	0xb7a49c60	-1.9623141e-05
122	0xb7291202	-1.0077378e-05
123	0xb7aaeecb	-2.0376776e-05
124	0x3762944e	1.350518e-05
125	0xb7a4a39d	-1.9626512e-05
126	0x37c546f9	2.351728e-05
127	0xb6252c85	-2.461283e-06
128	0xb77554c5	-1.4622875e-05
129	0xb7c0b18a	-2.2970857e-05
130	0x370e6448	8.487208e-06
131	0xb7ce1287	-2.4565741e-05
132	0x366868e7	3.4631755e-06
133	0x374dd97c	1.2269589e-05
134	0x37040be8	7.870585e-06
135	0x378da8a7	1.6887045e-05
136	0x37be4930	2.2683846e-05
137	0xb7abfe20	-2.0503125e-05
138	0x375d6a5f	1.3197393e-05
139	0xb750deeb	-1.2449668e-05
140	0x3737b7bc	1.0950429e-05
141	0xb79c8967	-1.8660632e-05
142	0x36bfae92	5.7125662e-06
143	0xb781c94b	-1.5471733e-05
144	0xb78dfead	-1.6927102e-05
145	0xb7cfd6d8	-2.4776367e-05
146	0x37adebe7	2.0733058e-05
147	0xb79d80a8	-1.8775769e-05
148	0x35e99ddf	1.7405799e-06
149	0x35422c10	7.233475e-07
150	0xb6cf7916	-6.183177e-06
151	0x36b3fa76	5.363773e-06
152	0xb75b6c20	-1.3078592e-05
153	0xb79d42ae	-1.8746909e-05
154	0x3753951d	1.2611298e-05
155	0xb60bd918	-2.083898e-06
156	0xb70acd1f	-8.2731995e-06
157	0xb6b776b1	-5.4676425e-06
158	0x37cb5278	2.4237888e-05
159	0x37667dd7	1.3738368e-05
160	0x37b72f3e	2.1837299e-05
161	0xb668d7df	-3.4696347e-06
162	0x3704f894	7.92569e-06
163	0xb73e53aa	-1.1344362e-05
164	0xb778072b	-1.4783621e-05
165	0x33caaaeb	9.437448e-08
166	0x365d7290	3.299825e-06
167	0xb73ce750	-1.125953e-05
168	0x3635f46c	2.7113374e-06
169	0xb72176d4	-9.624015e-06
170	0xb78cec54	-1.679935e-05
171	0x37823a99	1.5524494e-05
172	0x3792b394	1.7488179e-05
173	0x372b019b	1.0192768e-05
174	0xb7b9ec3f	-2.216373e-05
175	0x36fdb30a	7.5608305e-06
176	0x37686da4	1.3853805e-05
177	0xb71ac952	-9.225989e-06
178	0x361a0bac	2.2954582e-06
179	0xb688cdd8	-4.077079e-06
180	0xbe635705	-0.22201164
181	0x3d6eb12e	0.05827444
182	0x3c9f9314	0.019479312
183	0x3d4ede2b	0.050504845
184	0xbe7c588d	-0.24643154
185	0x3f0abaca	0.5419127
186	0x3ca73adc	0.020413809
187	0x3c9761d9	0.018479275
188	0xbd60e922	-0.054909833
189	0xbe58e687	-0.21181689
190	0xbd1934a6	-0.037403725
191	0x3c921b96	0.01783542
192	0x3d50d726	0.05098643
193	0xbe8350ef	-0.25647685
194	0x3de1db2e	0.11028133
195	0x3e17bfb9	0.1481923
196	0xbbce6dc0	-0.0062997043
197	0x3c9dc803	0.019260412
198	0x3d81c9e3	0.06337335
199	0x3e0243b6	0.12721142
200	0xbd6a39df	-0.057184096
201	0xbe737b81	-0.23777582
202	0x3c9792dd	0.018502647
203	0x3c87d5f7	0.016581519
204	0x3e5bcb71	0.21464325
205	0x3cb94e0e	0.022620227
206	0x3de4aa1f	0.111652605
207	0x3c9e88d4	0.019352354
208	0xbd6db55a	-0.05803428
209	0xbe80fd9e	-0.25193495
210	0xb6bea75f	-5.681926e-06
211	0xb7bd2a59	-2.2550275e-05
212	0xb7a83203	-2.005045e-05
213	0x370a892f	8.2573815e-06
214	0x379c7a87	1.8653705e-05
215	0xb7c5634e	-2.3530472e-05
216	0x36d9ab36	6.4870355e-06
217	0xb7c43035	-2.3387469e-05
218	0x3779b2a3	1.4883149e-05
219	0x355d4ce9	8.2440835e-07
220	0xb70c11e6	-8.348818e-06
221	0x368e358c	4.2381635e-06
222	0xb613ed98	-2.2043005e-06
223	0xb7a1feb5	-1.9311303e-05
224	0xb61a669e	-2.300752e-06
225	0x3791d4c8	1.7384431e-05
226	0xb7a34062	-1.9461095e-05
227	0xb7893f4d	-1.636115e-05
228	0xb7b46741	-2.1505753e-05
229	0x358a4ea9	1.0304694e-06
230	0x37c10996	2.3011857e-05
231	0xb768a7f6	-1.3867384e-05
232	0xb69b97ab	-4.6370164e-06
233	0xb6b9560f	-5.523448e-06
234	0xb63d9a4f	-2.8253014e-06
235	0x3509e0ff	5.136389e-07
236	0xb61f6aff	-2.3755126e-06
237	0xb7c315b2	-2.3255914e-05
238	0xb783ecb6	-1.5726644e-05
239	0x36d02846	6.2035715e-06
240	0xb74f7dec	-1.236748e-05
241	0xb6d20a1e	-6.2596655e-06
242	0xb718c663	-9.1060965e-06
243	0x37a97c3b	2.020422e-05
244	0xb79feb59	-1.906387e-05
245	0xb77f188d	-1.5204901e-05
246	0x372500d3	9.834958e-06
247	0xb63a0f44	-2.7725046e-06
248	0x37aea055	2.0817077e-05
249	0xb71d9a3c	-9.39384e-06
250	0x36c37a67	5.8257024e-06
251	0xb7b3f6b4	-2.1453343e-05
252	0xb5d7226e	-1.6028769e-06
253	0x372f9821	1.0466233e-05
254	0x37413b6c	1.1517532e-05
255	0x37aef38b	2.0855825e-05

model.flow.0.masked_mlp_scale.1.bias f4 [60]
0	0xbda1355a	-0.07871504
1	0xbdc7cb9a	-0.09755631
2	0xbdc891b7	-0.09793418
3	0x3dacb2cf	0.084325425
4	0x3d13ea20	0.03611195
5	0x3dac3a46	0.08409552
6	0x3dab8a77	0.083760194
7	0x3d70d391	0.058795515
8	0x3d3fe10b	0.046845477
9	0x3dcd3f64	0.100218564
10	0xbe1cdbba	-0.15318194
11	0x3d40e0c0	0.04708934
12	0x3d64b4a4	0.055836335
13	0x3da91e7f	0.0825777
14	0x3dadd116	0.084871456
15	0x3d3febb3	0.04685564
16	0x3d6e93ce	0.058246426
17	0xbda007f8	-0.0781402
18	0xbe21de01	-0.15807344
19	0xbdb5d9b2	-0.08879413
20	0x3d2397bf	0.03993964
21	0x3dac7d4a	0.084223345
22	0x3d66ffa2	0.056396134
23	0x3dba2e7d	0.09090898
24	0x3da6c886	0.081437156
25	0x3d35c436	0.044376574
26	0x3dbf3a6b	0.09337314
27	0xbdac380a	-0.08409126
28	0xbde15575	-0.11002628
29	0x3dbaf02b	0.0912784
30	0xbdce57b5	-0.100753225
31	0x3d9a79dd	0.07542775
32	0xbd91ff80	-0.07128811
33	0x3d99f03f	0.075165264
34	0x3d27d228	0.040971905
35	0xbd9bac56	-0.0760123
36	0x3dbb30e1	0.09140182
37	0xbd8cd030	-0.06875646
38	0x3dad0703	0.08448603
39	0xbd8c9da5	-0.06866006
40	0x37c76514	2.3769717e-05
41	0xb7880281	-1.621363e-05
42	0xb7a8bd7a	-2.0115393e-05
43	0xb62626ae	-2.4758442e-06
44	0xb7ccadb1	-2.4399576e-05
45	0xb7a632e9	-1.9812449e-05
46	0x32a8013b	1.9558334e-08
47	0xb76c2bd3	-1.40769e-05
48	0xb74de029	-1.22711435e-05
49	0xb682a61c	-3.8936396e-06
50	0x36bb99be	5.5909322e-06
51	0x379fbc9f	1.904211e-05
52	0x37912753	1.7303659e-05
53	0x37390fc6	1.1030532e-05
54	0xb775bdf1	-1.4647362e-05
55	0xb69273b6	-4.3646096e-06
56	0x37ce825e	2.461782e-05
57	0xb5969b5a	-1.1221084e-06
58	0xb78bd079	-1.6667169e-05
59	0x366b163b	3.5030669e-06
